model_zoo/team23_DSCF.pth (torch, 535137 bytes, 44 tensors)

conv_1.eval_conv.weight f4 [26, 3, 3, 3]
000000 de 57 05 bb 38 ff 79 3b c4 bc c7 39 db 76 bb 3b
       -0.0020346562 0.0038146507 0.0003809688 0.005720956
000010 1e 0f ac 3d ab 59 2d bb 9f 44 37 bb ca ab 16 3b
       0.08401321 -0.0026451151 -0.0027964485 0.0022990578
000020 ac b1 0a bb fe b7 47 ba af 43 7d ba f5 80 da ba
       -0.002116303 -0.00076186645 -0.000966127 -0.0016670512
000030 7c c5 62 ba 0e 9a 34 3d a1 60 d4 3b 96 cc 93 b9
       -0.0008650643 0.04409223 0.0064812456 -0.00028190453
000040 7e ac 1d ba fb c4 bb 3a bc bb 29 3a c2 8a bc 3a
       -0.0006014778 0.0014325673 0.0006474813 0.0014384615
000050 43 17 0a 3b 44 3c 34 3a b0 a1 0c be 72 a3 08 bb
       0.0021070994 0.00068754354 -0.13733554 -0.0020849374
000060 18 a2 74 3b 1d c8 55 bb 9c 85 ec 3a 47 aa 03 3b
       0.003732806 -0.0032620498 0.001804519 0.0020090507
000070 dc 0c c4 ba 9b e7 49 ba 7f 23 9d 3b 00 14 15 39
       -0.0014957446 -0.00077020534 0.004795491 0.00014217198
000080 55 44 13 bb 32 8a a6 3a ff 9b 49 bb f4 94 82 ba
       -0.002247115 0.001270598 -0.0030763147 -0.0009962604
000090 a4 ae b3 ba 57 4c 8e ba 70 29 14 3b 91 df e4 bb
       -0.0013708663 -0.0010856491 0.0022607706 -0.006984659
0000a0 00 f1 e0 3a 98 b3 e8 3a 7b 6d 6a bb 92 ea 90 3b
       0.0017161667 0.0017753718 -0.0035770822 0.004422494
0000b0 4d de fe 3a f3 61 c5 3a 96 95 01 3b 9f a7 ea b9
       0.0019444913 0.0015059098 0.0019772998 -0.00044756845
0000c0 0c f0 dc ba 88 42 38 39 fa 11 36 ba 5e 41 9a 3b
       -0.0016856208 0.00017572392 -0.0006945428 0.0047074994
0000d0 10 0d 19 bb 98 e0 cb ba a2 36 3d ba b1 31 b5 bc
       -0.0023353733 -0.0015554605 -0.0007217919 -0.022118421
0000e0 92 af 9e 3a 96 da d1 bc 8a 95 b6 3d 0c a3 b0 bc
       0.0012106767 -0.025616925 0.08915241 -0.021562122
0000f0 5b 77 aa ba 77 88 86 bc ad 1b a9 b9 7f 7a ad ba
       -0.0013005541 -0.016422493 -0.00032254812 -0.0013235359
000100 ff 7f dc bc e7 45 df bb ce 55 eb bc f4 73 e8 3d
       -0.026916502 -0.006813753 -0.028727438 0.11350241
000110 ef 37 bc bc 12 28 4e 3a 90 f2 9c bc 76 39 3b 38
       -0.02297589 0.00078642473 -0.019158632 4.463779e-05
000120 e0 a9 1d 3a cd e5 9f bc 36 ac 81 ba 96 b5 88 bc
       0.0006014388 -0.019518757 -0.0009893242 -0.01668815
000130 24 85 aa 3d 3b 7a 7b bc 09 c5 4a 39 67 4a ae bc
       0.08326176 -0.015348966 0.00019337623 -0.021275712
000140 a4 8f 14 ba 96 b4 dc ba f9 7a 1d 3b 46 12 26 3b
       -0.0005667156 -0.0016838487 0.0024029596 0.0025340482
000150 6c 48 c6 3a a8 19 83 bc 15 69 73 ba ea 6c f1 3a
       0.0015127785 -0.016003445 -0.0009285373 0.00184193
000160 05 e6 13 3b 25 f3 20 bb 5a fa 40 3b 92 78 9a ba
       0.0022567522 -0.0024558988 0.0029446096 -0.00117852
000170 33 58 b7 bb 79 65 85 3a 74 10 98 3b 57 f0 5a 3b
       -0.005595231 0.0010177336 0.0046406332 0.0033407414
000180 b4 81 e9 ba b6 f6 98 37 3e 45 56 3b 4f 68 63 b9
       -0.0017815144 1.8234696e-05 0.003269508 -0.00021687265
000190 17 a1 81 3a e7 63 08 3b db cc 83 bb 08 0c 28 3c
       0.0009889927 0.00208115 -0.0040222234 0.010256775
0001a0 4d 0b 80 bb af 12 09 3a 1e 6b b8 ba 73 d0 24 b9
       -0.003907597 0.00052289193 -0.0014070009 -0.00015717912
0001b0 89 e5 98 37 0c b0 35 3b 81 4c 80 bb ab 8c 85 bb
       1.8226698e-05 0.002772334 -0.00391537 -0.004075607
0001c0 10 00 1c 3b e3 fc 0b 3b 01 df 26 39 4b 23 24 ba
       0.0023803748 0.002136045 0.00015914069 -0.00062613626
0001d0 c7 30 36 3a 5d 83 11 3a 37 b2 12 bb 43 de 0e 3b
       0.00069500174 0.00055508857 -0.0022384056 0.0021799959
0001e0 34 5c 74 ba 70 51 ee 3a f9 93 0e bb 63 95 c9 3a
       -0.00093216007 0.0018182229 -0.002175568 0.0015379604
0001f0 0e 1d 10 ba 26 7d 25 ba e5 4e c6 39 3a 12 92 3a
       -0.00054974935 -0.0006312899 0.00037824284 0.0011144348
000200 4d ed 03 3b 07 84 40 3b 00 3f cf bb 35 73 e8 b9
       0.0020130456 0.002937557 -0.006324649 -0.00044336324
000210 6c 0a 9a 39 4c 98 2c 3a 27 70 28 3a 45 f0 8e 3a
       0.00029380934 0.00065839733 0.00064254034 0.0010905346
000220 ae f1 c3 bc 64 a8 00 3a c4 d6 74 bc 54 53 63 3e
       -0.023918953 0.00049079047 -0.014943782 0.22199756
000230 7c c5 62 bc 41 6f e1 ba ea fc 49 bb 34 38 69 bb
       -0.013841029 -0.0017199294 -0.0030820915 -0.0035586478
000240 1f 0c a0 3b f7 65 aa 3c 31 53 cb 3b fb 70 74 38
       0.0048842574 0.020800574 0.0062049855 5.8279355e-05
000250 a5 bf 99 be 71 99 87 bb b7 ef c6 3b 5b 14 bc bb
       -0.30029026 -0.0041381647 0.0060710567 -0.0057397312
000260 e7 78 18 3c 04 19 5e bb 9d 7f 6d bb 9e 93 86 bb
       0.009306169 -0.0033889422 -0.0036239394 -0.004106953
000270 37 28 2f 3c a4 75 b5 3d 04 e1 84 3c 30 1b a1 bb
       0.01069074 0.08860329 0.016220577 -0.004916571
000280 1d e4 03 3c a8 f2 e5 bb 77 93 2e 3b ae 77 8e ba
       0.008049992 -0.0070174523 0.002663819 -0.0010869408
000290 93 5b 04 bb e8 19 27 bb 10 41 82 bb 1d 5f aa 3b
       -0.0020196184 -0.002549762 -0.003975041 0.0051993267
0002a0 75 80 85 3b b6 14 aa bb e8 f9 37 ba e9 3f 0a bb
       0.004074151 -0.005190457 -0.0007018135 -0.0021095222
0002b0 1b e4 b5 b9 1f a1 5d 3b af 11 3c bb b7 a7 49 3c
       -0.00034692962 0.003381796 -0.0028697064 0.012308053
0002c0 a8 40 7f ba a1 82 29 bc 84 32 2d 3c af 53 b2 bb
       -0.00097371126 -0.010346086 0.010571126 -0.005442105
0002d0 53 c5 36 3a 9f c8 35 3b 5f 07 6a bb d7 6d a0 3b
       0.00069721526 0.0027737988 -0.003570996 0.0048959064
0002e0 d4 77 45 bc 25 3d 03 3b 5f 77 7f 3b d0 b3 38 bb
       -0.012052495 0.0020025459 0.0038981063 -0.0028183348
0002f0 0a 06 0f 3b 97 ac 8c 3a 5a ee 2c 3b bd 82 85 bb
       0.0021823668 0.0010732588 0.0026387186 -0.004074423
000300 39 9d af 3b 00 1c 04 bc 16 82 db 3a 3c 92 b8 b8
       0.0053593186 -0.008063316 0.0016747143 -8.801042e-05
000310 98 52 a7 3b d5 0a a6 ba d0 e7 88 bb 37 7f 30 3b
       0.0051062815 -0.0012668023 -0.004178025 0.0026931295
000320 ad 85 6c 3a ee 4f 51 bb 00 c5 77 3b 61 4b f6 3a
       0.0009022605 -0.003193851 0.003780663 0.0018790775
000330 ac ff ed bb 41 70 2c 3b 47 60 e6 b9 ff 88 ab 3a
       -0.0072631445 0.0026312026 -0.0004394075 0.0013087093
000340 ee 69 d2 ba b8 39 f7 3a e9 4a ee 3a 00 ae 16 bb
       -0.0016053298 0.0018861806 0.0018180284 -0.0022991896
000350 bc 3d 4e b9 3a 78 b1 3b c5 c4 72 bb 9f 63 16 3b
       -0.00019668689 0.0054159435 -0.0037043553 0.0022947562
000360 e6 b1 5b bb e5 d9 f5 ba 59 db 08 ba 67 38 fd 39
       -0.0033522784 -0.0018756954 -0.00052206736 0.00048297943
000370 80 b9 6b 3b e3 22 cd 3a 31 2f 91 bb 6d 17 da 3b
       0.003596872 0.0015650656 -0.0044306745 0.0066556246
000380 e3 55 71 bb 56 a6 8e 3b 03 5c 63 bb 46 db 6e 3a
       -0.0036824874 0.004353325 -0.0034692294 0.0009111654
000390 f7 96 56 bb 00 7a 9f 3b 2b 60 74 bb 90 c8 ea 39
       -0.003274379 0.0048668385 -0.0037288766 0.0004478139
0003a0 26 20 06 bb c6 19 1a 3b a2 e1 12 bb 00 b5 6c 3b
       -0.002046594 0.0023513897 -0.002241232 0.0036118627
0003b0 c5 7b dd 3a 0f b7 4f 3a 00 bf 37 bb 9d 95 d5 39
       0.0016897848 0.0007923701 -0.002803743 0.00040737996
0003c0 1f 87 39 3b fc e3 00 bc 1f cd 4b 3b 72 02 e0 b8
       0.0028309298 -0.007866856 0.0031097603 -0.00010681608
0003d0 24 fe a9 3c 23 76 b4 bb af 80 28 3d 90 b0 0a be
       0.020751067 -0.005507247 0.041138347 -0.13543916
0003e0 df ca 49 3d 94 33 6c ba fb c8 af 3c 09 c8 20 bb
       0.04926574 -0.0009010371 0.02145814 -0.0024533293
0003f0 76 fa 83 ba da 12 52 3c ee 93 6d 3b 38 88 dd 3b
       -0.001006915 0.012821877 0.0036251503 0.0067606233

conv_1.eval_conv.bias f4 [26]
000000 f2 7a 75 3f 46 4a 10 be ce a6 3a bf 89 46 96 bf
       0.95890725 -0.14090833 -0.72910774 -1.1740276
000010 5b 32 f5 be 28 e8 5f 3e 6d 06 05 be 68 48 a7 bd
       -0.4788998 0.21865904 -0.12990732 -0.08168107
000020 6f ae 20 3f 07 38 24 bf ad ca 31 bf a0 9f 32 3e
       0.62766165 -0.6414799 -0.69449884 0.17443705
000030 20 50 ea 3b 18 d5 cd 3e 44 91 8d bd 16 80 06 be
       0.007150665 0.4020164 -0.06912473 -0.13134798
000040 7d 44 7d 3e 70 6d c4 3c 37 38 12 be d0 dd dc 3d
       0.24733157 0.023977965 -0.14279257 0.10784495
000050 f4 e1 5b be 47 d7 af bd 3b 6c 98 3e 80 cd 43 bc
       -0.21472913 -0.08585983 0.29770073 -0.0119508505
000060 a8 02 41 bd 00 33 e0 3c
       -0.047121674 0.027368069

block_1.c1_r.eval_conv.weight f4 [26, 26, 3, 3]
000000 92 7f 01 bd c5 35 a6 bd 8b b9 2c bd ff 5f f1 3b
       -0.0316158 -0.081157245 -0.042169135 0.00736618
000010 03 6f 16 bf 7e 2f 46 3d 54 b8 26 bd b3 4d 53 bc
       -0.5876314 0.048385136 -0.040703133 -0.012896943
000020 e4 46 6a bc 92 cf d6 bd 0f 27 6d 3d 82 d8 ac bd
       -0.014299128 -0.1048881 0.057898577 -0.08439733
000030 6e 60 46 bd 3d d9 7a be 5b d3 4a bd f3 b9 3d be
       -0.048431806 -0.24496932 -0.04951797 -0.18527965
000040 b7 8b 35 3e 39 8d f0 bd d1 c3 01 bd 93 5f 1d bd
       0.17729078 -0.11745686 -0.031680886 -0.038421225
000050 e6 a2 25 bd 26 7a 63 3d 65 cc 4c 3b 0d 2c cc 3b
       -0.040438555 0.05553641 0.0031249758 0.006230837
000060 7f fd af 3c 81 0b 35 bb 6d b3 13 3d 06 52 3f bc
       0.021483181 -0.0027625265 0.036059786 -0.011677271
000070 ea 43 80 3d 87 b1 8d 3a c0 1e a5 bc 0b f0 84 bd
       0.062629536 0.0010810354 -0.020156264 -0.06491097
000080 99 fe 8c 3d 77 de 0a 3d 29 0a 15 bd 41 10 15 3d
       0.06884498 0.033903565 -0.036386643 0.036392454
000090 6b 82 ef 3c 29 97 de bd 99 f5 15 3d c0 3d ac bd
       0.029236993 -0.10868675 0.036611173 -0.084102154
0000a0 7e b0 1e 3e 23 cd 30 bd f3 46 f4 3d 1f df c1 bd
       0.15497014 -0.043164384 0.11927595 -0.09466385
0000b0 90 16 a3 3d b4 be ad bc 45 9f 6f bd 74 11 70 bc
       0.07963288 -0.021209098 -0.0585015 -0.014652599
0000c0 41 8a 05 3d 35 ee 7a be 51 fd 49 3d 40 0e f3 ba
       0.032602552 -0.24504931 0.049313847 -0.0018543676
0000d0 ac 1a 35 bd 5c a2 8f 3d eb a2 6a 3d 03 11 f2 bc
       -0.04421489 0.070133895 0.057284277 -0.029549127
0000e0 bb c2 30 bd 45 2d cc 3c 52 8c e4 3c 2b 7b 9c 3b
       -0.04315446 0.02492393 0.027898941 0.004775425
0000f0 7f b6 2b be 91 88 99 3d 40 8e a0 3d 82 94 52 3b
       -0.16768835 0.07496751 0.07839632 0.0032131975
000100 cc 0b 93 3d 2d aa 5d 3c 31 21 f7 3c 49 74 bb 3d
       0.071799845 0.013529343 0.030167194 0.09153039
000110 26 c1 3e 3e 61 9d 21 bb 3b 80 05 bd 24 1b 62 3e
       0.18628368 -0.0024660456 -0.032592993 0.22080666
000120 c1 d1 d3 3d 5f 7d a0 bc 0a 4b 69 3d 24 09 dc bd
       0.10342742 -0.019591032 0.05695633 -0.10743931
000130 14 42 e6 bd 4c 45 00 be da e6 0b 3d 2f 5d b7 bc
       -0.11243072 -0.12526435 0.034155704 -0.0223833
000140 d1 71 c8 bd b1 91 6b bd b1 df 99 bd a1 3b 37 3d
       -0.09787334 -0.05751199 -0.07513369 0.0447346
000150 78 a5 aa 3d e7 b7 68 bd 39 f5 88 bd ca 60 61 3d
       0.08332342 -0.056816008 -0.066873975 0.055023946
000160 e3 8c 93 3c 1e 81 66 bd 3c f2 bb 3a 08 08 10 bb
       0.018011516 -0.05627548 0.0014339159 -0.0021977443
000170 e1 ec c3 bb 45 b9 01 bb 75 f1 1f 3c 55 ac 1b bb
       -0.005979166 -0.0019794267 0.009762158 -0.002375384
000180 48 f4 d5 bb c6 81 7b 3b ea 7f 06 3b 8f a4 9f 38
       -0.0065293647 0.0038376912 0.002052302 7.612362e-05
000190 fe 29 5e bc aa 46 1a 3b 9d f1 05 3c c3 75 a1 3c
       -0.013559816 0.0023540654 0.008175281 0.019709473
0001a0 3f fc eb ba c8 84 7f ba e0 49 c1 bb a9 c5 27 3b
       -0.0018004252 -0.0009747264 -0.005898699 0.0025599992
0001b0 c6 7a b8 3c 3c 17 c5 3c 31 89 29 3d e0 e6 0e bd
       0.02251948 0.02405893 0.0413906 -0.03488815
0001c0 58 ca e9 3c 66 75 e8 3a ca 8c 02 bd 25 79 55 3c
       0.028538868 0.0017735183 -0.03187255 0.013029371
0001d0 a1 b4 ae bc a3 c9 32 3b 91 26 4b 3c 71 8d b2 3c
       -0.021326365 0.002728083 0.012399332 0.02179596
0001e0 2a af 40 3b 3b 3d ab 3c d3 3b 86 3c 20 52 0c 3c
       0.002940128 0.02090322 0.016385948 0.008564502
0001f0 a9 b3 40 bb dd 47 d5 bb ec 40 3b 3c f3 41 d7 3d
       -0.002940396 -0.006508811 0.011429053 0.10510626
000200 9d 41 78 bd 05 85 98 bd 1d 5f c8 bd e2 4a 56 3e
       -0.06060945 -0.074472465 -0.097837664 0.20927003
000210 d4 0e 83 ba b4 1e 41 3e 71 9b 25 be 9f ba 80 bc
       -0.0009998926 0.18859369 -0.16172577 -0.015713988
000220 03 c8 5e 3c a1 de 4d bd df 55 17 be 42 78 d9 3d
       0.013597491 -0.050261144 -0.14778851 0.106186405
000230 a2 33 97 bc a3 42 e9 bc 9c 24 32 be e3 db b7 bd
       -0.018457238 -0.028474158 -0.17396778 -0.08977487
000240 a1 6d 3f 3d 89 94 4b bc 8d 70 bb bd e8 c9 58 3d
       0.04673541 -0.01242555 -0.09152327 0.052926928
000250 71 bb 0e be 79 d1 89 bd d3 91 1d 3c b6 3a 88 3b
       -0.1393869 -0.06729407 0.009617287 0.0041573895
000260 69 1f a6 bd 18 6f 05 3d 4b 49 f4 3c 67 1b 93 3d
       -0.0811146 0.03257665 0.029820105 0.07182961
000270 87 08 25 bd 97 0a a7 bd 58 39 49 bc 3d 4b 35 3c
       -0.040291335 -0.08156317 -0.012281738 0.0110653015
000280 cc 66 e3 ba 0a 93 5d 3d 62 67 91 3b c2 be 9f 3b
       -0.0017349361 0.054095306 0.004437373 0.004875035
000290 06 ea 62 bd e4 66 c4 3b 76 8f d5 3c b0 f3 70 3d
       -0.055398963 0.005993711 0.026069384 0.05882615
0002a0 22 96 d1 3c 50 bc bc 3c 58 ad 70 3d 8e 98 fa ba
       0.025584284 0.023039013 0.058759063 -0.0019118951
0002b0 cd e0 99 bc 1c c2 98 3c ec 71 7d bd 07 0b 27 3c
       -0.018783951 0.018647246 -0.061876222 0.0101955
0002c0 b4 ea 43 3d e7 be c7 3c 6b 25 6f bd a9 db 10 3d
       0.047831252 0.024383022 -0.058385294 0.035365734
0002d0 7e 66 ac ba d0 d7 7c bc 9c 87 05 bd db 0d 16 3d
       -0.0013153104 -0.015432313 -0.03260003 0.036634307
0002e0 25 03 05 3d c5 c9 b3 3b 79 22 d9 3a a1 dc 43 bc
       0.032473702 0.0054866993 0.001656606 -0.0119544575
0002f0 54 08 e2 3b 38 ea 47 3d eb 42 43 3d b3 a9 08 3a
       0.0068979654 0.048807353 0.04767124 0.00052132754
000300 a8 b0 33 bd 8a 79 87 3d d2 47 c7 bc f5 4e dd 3b
       -0.043869644 0.066149786 -0.024326239 0.006753797
000310 9d fb a3 bc f3 34 47 bc d0 f0 f6 bc ad e6 ff 3c
       -0.02001744 -0.01215862 -0.030144125 0.031237924
000320 73 18 aa 3d da f5 d9 bc 8f 56 d6 3d d0 0d 1e 3d
       0.083054446 -0.026606489 0.104657285 0.03858739
000330 c2 e7 c1 3d 03 96 2e bb b3 0c 8c 3c f0 c1 4d bc
       0.094680324 -0.0026639707 0.0170959 -0.012558445
000340 b4 5b 31 3c d6 ca c1 bc c9 2f e8 3b 92 67 d4 bb
       0.010825086 -0.02365629 0.0070857746 -0.006482073
000350 a6 99 08 bc 6e fa 48 3d ca 95 f5 3d 08 46 c8 3c
       -0.008337414 0.049066953 0.119914606 0.024447456
000360 bc 18 89 3d 67 bc 1a 3d 4c 16 c3 3c fd 76 30 3d
       0.06694171 0.03777733 0.023814343 0.043082226
000370 0e 3c 5a 3d 8b 88 4d bb b6 72 84 bb 80 f3 f5 bc
       0.05327993 -0.0031361904 -0.004041995 -0.030023336
000380 9f 89 0c bd b1 9f df bb e2 86 11 bc a0 ec 11 39
       -0.034310933 -0.0068244566 -0.008882256 0.00013916427
000390 22 95 1b 3d 10 6c 47 3e ce dc 09 3e de b6 59 bc
       0.03798402 0.19474816 0.13463137 -0.013288228
0003a0 38 bc a3 3c 4b ca d0 bc 28 60 7d be 65 80 e7 be
       0.01998721 -0.025487086 -0.24743712 -0.45215145
0003b0 64 65 62 be 01 a6 fe 3d 70 d2 93 3e cb d5 26 3e
       -0.2210899 0.124340065 0.2887149 0.16292493
0003c0 16 1f 93 3d 50 82 4f 3e 75 71 99 3d 80 e2 b7 bd
       0.071836635 0.20264554 0.07492343 -0.08978748
0003d0 fa c0 11 3e db 60 0c bd 0e 0b a8 3d 3a ed 68 be
       0.14233771 -0.034272056 0.082052335 -0.22746745
0003e0 fb 89 8d 3d b8 a6 83 3d ea 2b 3f 3c 29 ee 2b 3d
       0.06911083 0.064282835 0.011668185 0.041975174
0003f0 d9 57 e1 bc 47 3f 39 bd 5e a1 2e bc 12 f0 23 bd
       -0.02750771 -0.04522636 -0.01065859 -0.04002387

block_1.c1_r.eval_conv.bias f4 [26]
000000 37 68 cc be 0c bb da 3f 83 80 ce 3d 0e 71 bd 3f
       -0.3992326 1.7088332 0.100831054 1.4800127
000010 3a ef 0a 40 fa ae 17 40 68 79 5a 3e 20 ec da bc
       2.1708512 2.3700547 0.21335375 -0.026723921
000020 be 44 ef be ac 16 82 3f 55 b9 4e 3f f5 cf 96 3f
       -0.46732134 1.0163169 0.80751544 1.1782213
000030 1e 97 a5 3f 68 5e 57 c0 4c df 1f bf f4 0a 21 bd
       1.2936742 -3.365137 -0.624501 -0.039317086
000040 86 10 4d c0 cc 9a 16 bf 9b ef cf bd f8 da fe bf
       -3.2041335 -0.5882995 -0.10153123 -1.9910574
000050 58 83 3e bf fe d7 fe be 86 6f d8 be ba 6c c1 3e
       -0.74419165 -0.49774164 -0.42272586 0.37778264
000060 08 45 64 40 9c b8 a6 3d
       3.5667133 0.0814068

block_1.c2_r.eval_conv.weight f4 [26, 26, 3, 3]
000000 33 05 9b 3c e3 1a 5e 3d 6c 90 98 3c 2a 5e 1b 3c
       0.018923378 0.05422486 0.018623553 0.0094829
000010 0b 62 15 be 5e ff cd bc 15 3c e3 3c dc 7b 0c 3d
       -0.14588182 -0.025146183 0.02773861 0.03429781
000020 a2 e6 95 b8 82 07 c6 3c e9 04 c3 3b 2a ac 58 bb
       -7.1478324e-05 0.024173502 0.005951513 -0.0033061602
000030 6e 32 20 3d 82 3e 25 3d f4 6d 28 bc bf 8a 92 3c
       0.039110593 0.040342815 -0.010280121 0.017888425
000040 97 64 61 bd 94 fd aa 3c 13 b7 23 3b 83 c4 d4 3b
       -0.05502757 0.020872869 0.0024980947 0.0064931526
000050 ab 87 d9 b9 dd eb b1 3a 38 f4 9b ba ad ae 2d 3b
       -0.00041490546 0.0013574321 -0.0011898344 0.002650182
000060 2f 7d 0d 3a f5 f8 85 bb 72 1a e7 38 6d 1b 09 bd
       0.0005397377 -0.004088516 0.00011019864 -0.03347342
000070 f8 f6 bb bc 60 b9 09 bd 90 ab bd bc 11 f2 09 3c
       -0.022944912 -0.033624053 -0.023153096 0.00841953
000080 5d e8 8f bc 3d 34 e6 3b 04 77 46 bd a6 cd 90 bb
       -0.017566854 0.0070252703 -0.048453346 -0.0044190465
000090 77 c6 c7 3c 9e 08 4d 3c f4 2a 6e 3c 2b d1 5c 3d
       0.024386628 0.0125142615 0.014536608 0.053910416
0000a0 e2 32 e4 3c 20 c3 ec 3c 45 e6 c5 bb 1e 69 a9 bb
       0.027856294 0.028901637 -0.006039413 -0.0051700016
0000b0 51 ff cd 3c 8a 23 84 3d b6 4f 61 3d 2d da 79 bc
       0.025146158 0.06452091 0.05500766 -0.015249771
0000c0 eb c3 d8 3c 93 30 43 bd a8 7d 38 35 a8 d2 42 3d
       0.026460608 -0.047653746 6.8728195e-07 0.04756418
0000d0 13 96 1c bd 39 9c 28 bd fa a8 39 3b c0 f4 f1 bb
       -0.03822906 -0.04116461 0.0028329478 -0.007383913
0000e0 a1 ce 91 bb 82 34 7d 3b 79 83 21 bd ce 69 92 3a
       -0.004449681 0.0038636033 -0.039432023 0.0011170448
0000f0 49 2a 8d ba c4 44 a0 3b a3 50 c7 3b d2 8e a5 bc
       -0.0010770048 0.00489101 0.0060826107 -0.020209704
000100 c0 95 c4 bc 69 07 54 bb 75 7f 04 3c 7a d7 9b 3d
       -0.023997188 -0.003235305 0.008087029 0.07609458
000110 b7 3e 5f bc 97 97 64 bc 9a 84 93 bb bb e2 3c bc
       -0.013625792 -0.013952157 -0.0045018913 -0.011528666
000120 c8 37 02 3c 18 56 ac bb 76 13 cf bb 8a 30 b6 3c
       0.00794787 -0.0052592866 -0.0063194586 0.022239942
000130 49 77 8f ba 9d 6e b2 bb b3 17 c5 3b 3a 62 1b bc
       -0.0010945584 -0.005445315 0.006014788 -0.009483868
000140 ab 03 23 ba 30 3d 22 bd 7f 8f 94 3c 22 6c e3 bb
       -0.0006218503 -0.039609134 0.01813483 -0.0069403807
000150 8b c6 30 bd b0 cf 0f 3e c5 ef 04 3c d3 97 d0 bc
       -0.043158095 0.1404407 0.008113806 -0.02546302
000160 38 7c a6 bc 5d ee ad bc 7d 4f c9 3a 2d a7 1e bc
       -0.020322904 -0.021231825 0.0015358772 -0.0096834125
000170 42 b4 26 bb 7c 30 31 bd 4e 80 1d bd c7 e4 c6 3b
       -0.0025437032 -0.04325913 -0.03845244 0.006069753
000180 8d 5f 32 3c 56 92 24 3a b4 3b e4 39 f8 1a 5d 3c
       0.010887039 0.0006277909 0.0004353203 0.013495199
000190 61 40 38 ba 54 f5 74 3c c2 04 a4 3d ac 6d ab 3d
       -0.0007028636 0.014951069 0.0800872 0.083705276
0001a0 d1 50 33 3a d9 63 c1 3c 1f 52 58 bd 1c 17 9d bc
       0.00068403507 0.023607181 -0.05281269 -0.019176058
0001b0 4f 12 09 bd ef 28 60 3d f9 76 bd bb 0a 09 1a bd
       -0.033464726 0.054726537 -0.005782005 -0.037606277
0001c0 13 75 dc 3d 32 40 f7 ba ae 04 21 bd 03 bb c4 bc
       0.10764518 -0.0018863736 -0.039311104 -0.024014955
0001d0 d1 52 c0 bc 20 c0 95 be c3 ba 61 be ee c2 54 be
       -0.02347699 -0.29248142 -0.220439 -0.20777485
0001e0 47 d4 d9 3d c6 56 16 3f 88 90 89 bd 97 51 43 bd
       0.10636192 0.58726156 -0.0671702 -0.047685232
0001f0 54 42 e2 3d 9c 0c e6 bd a8 ed 16 bc 32 e5 89 3a
       0.11047807 -0.11232874 -0.009211935 0.0010520576
000200 ad 4d 8b 3c d1 86 b8 3c 3b cc ba bd 0f 25 44 3d
       0.017004812 0.022525223 -0.09120985 0.047886904
000210 91 ac 75 bc b3 75 03 3d 8b 45 01 bb d0 d0 64 bb
       -0.014994756 0.03209467 -0.0019725289 -0.00349145
000220 c5 9b cf bb f4 38 cb ba 04 f9 c1 bc 4d 6d 76 bd
       -0.006335708 -0.0015504644 -0.02367831 -0.06016283
000230 b2 0b 0a bd 5c 29 75 ba 40 b1 38 3c ce 5d a5 ba
       -0.03370256 -0.00093521713 0.011272728 -0.0012616457
000240 c7 0c 73 be a8 48 9e be 9e 50 d1 bd a2 ee bb be
       -0.23735343 -0.30914807 -0.10220455 -0.367055
000250 05 b0 3b 3f 06 db 5e be 0e 32 37 3c d6 a8 99 be
       0.7331546 -0.21763238 0.011181368 -0.30011624
000260 b3 8c 4a 3e 43 47 3a bc 36 bc fd bb 15 9b 38 bc
       0.19780235 -0.011369529 -0.0077433838 -0.011267443
000270 36 84 fa 3a b5 84 c6 ba fa 9f 70 bb 4c 26 5d bb
       0.0019112888 -0.0015145751 -0.0036716447 -0.003374475
000280 58 c5 4f 3c bf ce b3 bb 6a e2 c4 bc 1d 70 e8 bc
       0.012681328 -0.0054872925 -0.024033744 -0.028373772
000290 03 6b e8 3a 8a cd 42 bb 0d 41 29 3b d1 8f c8 3b
       0.0017732087 -0.0029724562 0.0025826127 0.00612066
0002a0 1f 87 76 bb df e1 71 3c 9a d4 e7 3c 53 3d 2f 3d
       -0.003761716 0.0147633245 0.028299619 0.042783093
0002b0 8b e0 5a 3d a9 5f 98 ba 76 84 f9 3b 32 f9 4a bc
       0.053436797 -0.0011625189 0.0076146675 -0.012388514
0002c0 19 f4 3c 3c d5 e8 89 bc 66 00 17 bd 78 2f 6e bd
       0.011532807 -0.016834656 -0.036865614 -0.05815074
0002d0 fa 0d e4 bd aa 73 1c be c5 c5 90 bd b8 cf 05 be
       -0.11135478 -0.15278497 -0.070689715 -0.1306752
0002e0 c0 fe c1 3e 7d 24 8a bd d3 e1 9c 3d e1 e3 26 be
       0.3788967 -0.06745241 0.0766026 -0.16297866
0002f0 4b 95 cb 3b cb 16 d4 bc d9 c1 1e 3b 4e 9f 49 b7
       0.0062128655 -0.025889775 0.002422443 -1.2017625e-05
000300 34 91 58 bd ed 1d ab bc 36 cb 95 3b 33 19 6b bc
       -0.05287285 -0.020888293 0.004571344 -0.01434927
000310 16 d0 c3 3b f2 30 3e 39 c6 8a c6 3c e7 11 ac 3c
       0.0059757335 0.00018138046 0.024236094 0.02100463
000320 44 44 da 3c a8 42 ad 3b 4e fa be bc 02 bb af 3c
       0.02664388 0.005287487 -0.023312714 0.021451477
000330 5f 99 0d bd 47 53 90 3d da 30 82 39 62 6a be 3b
       -0.034570094 0.07047134 0.0002483193 0.0058110217
000340 16 e5 4b 3c 17 2d d4 ba f6 4c a9 bc 8d 7a 62 bc
       0.012444755 -0.0016187754 -0.02066658 -0.013823164
000350 7f f4 e8 3a b7 4c 33 bb fb 36 a4 bb ef 39 75 3b
       0.0017773061 -0.0027358958 -0.005011437 0.0037418564
000360 35 f2 92 39 a8 ac a1 bd a6 47 e4 bd 5a c0 08 3c
       0.00028027748 -0.0789426 -0.11146478 0.008346641
000370 d1 34 21 3d 8f 14 ac 3c b2 de fe 3c 83 20 96 bd
       0.03935701 0.021005897 0.031112049 -0.0733042
000380 da 32 59 3c 2f 84 0d bb 31 3c b0 39 49 e2 c3 3b
       0.013256753 -0.002159368 0.00033614182 0.005977903
000390 02 0f 4d bc 50 d3 8d bc 38 04 d9 ba a0 48 29 bc
       -0.012515785 -0.017312676 -0.0016557043 -0.010332257
0003a0 53 32 c5 3c 99 d6 23 bc 27 06 30 3c 00 85 4e bd
       0.024071848 -0.009999895 0.010743654 -0.050419807
0003b0 d5 ae 37 3d d7 6e 76 3d 09 fe a2 bd 18 ed a2 3c
       0.044844467 0.0601643 -0.079586096 0.019888446
0003c0 12 56 ac bc b7 5c a6 bc 9c d0 c1 3b d4 05 39 3d
       -0.021037135 -0.020307882 0.0059147608 0.045171574
0003d0 09 3b 2a bd 31 d8 30 3d 15 ec 84 3c d9 44 8e bc
       -0.041560207 0.043174926 0.016225854 -0.017366813
0003e0 fc 07 0d 3c 88 63 a1 bc 4d 38 ba bc 93 10 bf 3c
       0.008607861 -0.01970078 -0.022731924 0.023323333
0003f0 86 12 92 bb ff 76 88 3b 42 3b b4 3b 40 28 6a 3b
       -0.0044577746 0.004164576 0.005500228 0.0035729557

block_1.c2_r.eval_conv.bias f4 [26]
000000 6f c3 84 3f da d6 94 3e e0 6f 93 c0 a2 43 8f bf
       1.0372142 0.2907017 -4.6074066 -1.1192515
000010 18 23 4d be b8 26 4c c0 28 3a 22 c0 7d 6e a7 c0
       -0.20032918 -3.1898632 -2.5347996 -5.2322373
000020 32 57 26 3f 82 09 80 be cb 99 85 c0 63 59 03 be
       0.649768 -0.25007254 -4.1750236 -0.12827067
000030 23 62 a6 bf 4c bf 91 c0 9c dc 70 3f 90 55 9b 3f
       -1.2998699 -4.5546017 0.94086623 1.2135487
000040 ca 20 ae 3f 33 a5 87 3f 6c a9 6c c0 90 41 88 bf
       1.3603756 1.059729 -3.6978407 -1.0645008
000050 72 6f a9 3f 34 32 07 3f 7e d5 9d be 8e 9f 3d c0
       1.3237135 0.5281098 -0.30826944 -2.9628634
000060 7c b8 b9 c0 57 c1 38 c0
       -5.80377 -2.8868005

block_1.c3_r.eval_conv.weight f4 [26, 26, 3, 3]
000000 6d e9 99 3a 7c 73 c2 3a 66 d5 0f 3a 69 af 9b 3b
       0.001174254 0.0014835442 0.0005486816 0.004751135
000010 d1 60 e2 b8 69 ab a1 3b 7b 2f 0f 3b d8 a6 81 3b
       -0.00010794553 0.0049337638 0.002184837 0.003956657
000020 58 5c eb ba 61 e6 1c bb f7 8a b9 bb 1c a4 c0 ba
       -0.0017956598 -0.0023941027 -0.005662318 -0.0014697346
000030 ec 5a 14 ba 48 20 5d 3b 1d b6 9e 3a 6a 40 ed 3a
       -0.00056593004 0.0033741165 0.0012108717 0.0018100862
000040 5e c0 a9 bb ae 2b f6 ba 18 0c 0f ba fb 4b 5b bd
       -0.0051804027 -0.0018781328 -0.0005456819 -0.053539257
000050 b9 0f ac bc ea 3e c4 bd db f3 49 bd ac 88 5b bd
       -0.02100359 -0.095823124 -0.049304824 -0.053597137
000060 66 cc 34 3d 16 e8 52 3c 40 fc 07 bd 84 5e 88 bb
       0.044140242 0.012872716 -0.03319955 -0.0041616578
000070 f1 3c 54 3b 5d ee e8 3b ed 77 b9 3b cc b5 f5 bd
       0.0032384957 0.0071084932 0.005660048 -0.119975656
000080 1c f0 02 3c a3 8c 12 bc e0 41 a3 3b c4 e0 92 ba
       0.007991817 -0.008944663 0.004982218 -0.0011205901
000090 0c b2 14 3c 56 15 1b 3b 2e 5f 33 ba 20 50 29 3b
       0.009075653 0.002366384 -0.0006842491 0.0025835112
0000a0 5e 47 c2 3b 63 f8 bf 3a 29 9f ef 3b 26 56 1e 3b
       0.005928918 0.0014646169 0.0073126745 0.0024160235
0000b0 6e 2a e4 bb da c2 36 bc a4 aa f5 bb 35 47 96 3b
       -0.006963066 -0.011154855 -0.0074971486 0.0045861253
0000c0 2f 4b cc bb 31 38 78 3d 08 90 3a 3a 95 dc 7a 3b
       -0.0062345485 0.060600463 0.0007116799 0.003827845
0000d0 cb c4 f0 3b 95 eb a7 bb fc e3 62 3b b2 c9 b9 bb
       0.0073476783 -0.005124519 0.0034620753 -0.005669796
0000e0 dd f9 2f bb a3 ea a1 3c 4a c9 e0 bd 48 fd 52 bc
       -0.002685181 0.019765204 -0.10975893 -0.01287777
0000f0 35 73 d1 bb 15 77 64 3a 46 54 b1 bb f7 97 33 3a
       -0.0063919076 0.00087152544 -0.0054116575 0.00068509526
000100 a9 52 1f 3d 18 a2 e7 3c b5 ad f8 3c c2 6c 49 3f
       0.03889719 0.028275535 0.030356267 0.78681576
000110 fc 0f 7e 3c 31 cd 29 bc 0f bc fb 3c 81 fe af bc
       0.015506741 -0.010363863 0.030729322 -0.021483662
000120 0d 52 41 3a a9 54 1b 39 1c 9a 3b ba ec 20 41 bb
       0.0007374592 0.0001481349 -0.0007156448 -0.0029469086
000130 b5 ed 6e bb be c1 22 3b 46 2a aa ba a8 fe 1e 3b
       -0.0036457602 0.0024834718 -0.0012982569 0.0024260674
000140 49 14 0c 3a 84 6c 65 ba ac fb 96 bb 84 37 c6 ba
       0.0005343599 -0.0008751827 -0.0046076383 -0.0015122746
000150 89 ad 4e 3b 8e 02 01 3c 19 05 67 3b 6d 4d c5 3a
       0.003153654 0.007874144 0.0035250841 0.0015052982
000160 35 87 70 bb bc 4e 1c ba 08 6a d4 3d 12 e5 a3 3d
       -0.0036701683 -0.000596266 0.10371786 0.08002676
000170 86 c7 db 3c 88 67 2a 3d 96 0a 70 3d 91 47 3e 3d
       0.026828539 0.04160264 0.058603846 0.04645497
000180 24 74 8c bc 30 f9 25 bb 60 38 f0 bc ca ad d4 bb
       -0.017145224 -0.002532553 -0.029323757 -0.006490444
000190 19 73 74 bb 06 f7 58 3b 74 a2 8d 3b ef 72 1a ba
       -0.003730005 0.0033106222 0.0043223444 -0.000589176
0001a0 fa 55 eb 3b b1 9b 38 bb c9 fb 83 bc 24 38 77 b9
       0.00718188 -0.0028168971 -0.016111271 -0.0002357667
0001b0 e1 cf 20 bb fe 24 f1 39 f9 dc 4c bb db f0 93 ba
       -0.0024537968 0.00045994663 -0.003125964 -0.001128699
0001c0 5b 2f 74 bc 90 b1 4e 3a ce bf 16 bb a5 6b ac bc
       -0.014903869 0.0007884735 -0.0023002508 -0.021047423
0001d0 09 66 fe bb a9 b1 18 3b 43 5b 27 bd 7b 82 0a bc
       -0.0077636284 0.0023299253 -0.04085852 -0.0084539605
0001e0 59 6a 8f bd 48 d9 5a be 66 5a 97 3d 6c 7b 16 bd
       -0.07002706 -0.21371949 0.07390289 -0.036738798
0001f0 e8 0b bb 3d a6 0e 9f 3c 60 75 87 3c 28 73 42 bb
       0.0913313 0.019416165 0.016535461 -0.002967069
000200 1b 35 8e 3b 42 12 c3 3b 51 87 28 bb c9 a9 8a bb
       0.0043398268 0.0059531042 -0.002571542 -0.0042316657
000210 61 07 be ba 7f 3c 0b 3b 34 f5 f7 3a 36 8d b4 ba
       -0.0014498049 0.0021245775 0.0018917681 -0.0013774994
000220 f4 3f 12 bb a8 ea 7d 3a 2c 7d 0b ba 54 92 87 3c
       -0.002231595 0.00096861506 -0.0005321081 0.016549267
000230 bb 6d ac bb 2b ce 0e 3b 1c f0 c2 bb 1a 08 f6 ba
       -0.0052621043 0.0021790366 -0.0059490334 -0.0018770725
000240 02 d1 4c ba 87 20 8b ba 00 c9 81 bb 0e 56 ae ba
       -0.0007813127 -0.0010614552 -0.0039607286 -0.0013300793
000250 b4 9f cb bb 0b 4a 09 b9 9a 10 fb 3a fe 3d ef 3b
       -0.0062141065 -0.00013092921 0.0019154728 0.007301091
000260 a7 2f ec 3a 38 65 6e 3b 0e 2e 0d bc 6f 90 c4 ba
       0.0018019573 0.003637625 -0.008616937 -0.0014996658
000270 0a b0 a4 bb 05 71 b3 3b 4a a3 d9 b9 3e bb 65 ba
       -0.0050258683 0.0054761195 -0.00041511125 -0.0008763558
000280 a1 67 96 3a 53 12 3f b9 cd f9 19 3c 72 3c d6 3a
       0.0011474976 -0.00018222006 0.009397936 0.0016344918
000290 cb c4 1e bb 79 f9 b4 bc 28 04 e6 3d 9a 70 1c bd
       -0.0024226184 -0.022091614 0.112312615 -0.038193323
0002a0 15 4e f0 3b aa 87 c0 3a a5 de 83 bd bb a1 9c bc
       0.007333527 0.0014688869 -0.064389504 -0.019120088
0002b0 04 9a a4 3c 39 d2 f2 bc 2e 5d c1 bb 60 6f 58 bc
       0.020092972 -0.029641258 -0.0059010005 -0.013210148
0002c0 57 a5 ae 3c a4 b7 da bb 32 f6 df 3c 28 0f a2 3c
       0.021319075 -0.0066747237 0.027339075 0.019782618
0002d0 ab a0 95 b9 00 bf d7 39 b1 f4 07 b9 e6 cf 62 ba
       -0.00028539202 0.00041150302 -0.00012965758 -0.0008652195
0002e0 19 76 0d 38 b5 e3 46 ba 44 b2 8b b9 0b 83 0c b9
       3.3727007e-05 -0.00075870316 -0.00026644964 -0.00013400258
0002f0 0d 32 79 3a e6 9b 0a bb e5 bd 97 ba 6f 0e 18 bb
       0.00095060543 -0.0021150052 -0.0011576979 -0.0023201962
000300 a2 85 30 bb 36 f0 1d bb b7 ff 18 3b e3 e1 30 bb
       -0.002693512 -0.0024099476 0.0023345777 -0.0026990108
000310 9b 58 09 3b 0a 63 6e ba e0 d4 a4 3a 7b 19 85 3b
       0.0020957354 -0.00090937375 0.0012575649 0.0040618754
000320 9a ac 08 3b 0b a2 f4 3a bf 47 36 bc a6 10 26 3b
       0.0020854832 0.0018664015 -0.011125504 0.0025339513
000330 c9 76 a0 38 01 c4 24 bb 91 75 a4 3a 03 c5 14 3c
       7.65152e-05 -0.0025141241 0.0012547245 0.009080174
000340 a6 88 0d bd 02 94 75 3d 7c cc b7 3c d3 39 73 bd
       -0.034554146 0.059955604 0.022436373 -0.059381317
000350 d9 fd d6 bc 36 8b c1 bb 56 66 a4 bc ce eb 48 3a
       -0.02624409 -0.005906488 -0.020068329 0.0007664532
000360 49 a5 8c bc c5 a9 ac bc 2d bf 3a bd 5d 22 dd bb
       -0.017168658 -0.021077046 -0.045592476 -0.006748481
000370 96 20 98 bd 7b 31 07 bc 8a 28 28 3c 55 f4 b3 b9
       -0.0742809 -0.008251543 0.0102635715 -0.00034323582
000380 6e 32 13 bc 5e 1a 00 bd fb 8a f2 bc dd 19 12 bd
       -0.008984191 -0.031275146 -0.029607287 -0.035669196
000390 25 4c 5a 3d 33 ce 77 bd 90 6f b1 bb 9d f8 5c 3c
       0.053295273 -0.06049938 -0.0054149106 0.013487008
0003a0 9c 1c ca 3c 84 5c 39 bc 47 23 b7 3d d5 87 c2 bb
       0.024671845 -0.011313561 0.089422755 -0.0059366026
0003b0 b6 c7 b1 3c 0b fa 22 3d 7f 58 b1 3e a5 8a c7 bc
       0.021701675 0.03978924 0.3463783 -0.024358103
0003c0 c5 7f 77 3d a7 78 25 3e 5e 4f 5b 3d 31 eb 18 3e
       0.060424585 0.16159306 0.053542487 0.14933468
0003d0 d7 c7 2f 3e 9c 84 6b 3c 4b fb 47 bf bf 8d 94 be
       0.17166077 0.014374878 -0.7811782 -0.29014394
0003e0 2f 74 5d bd cb 1b 6c 3e bc 3f 77 3c f4 e3 cb bc
       -0.05406588 0.23057477 0.015090879 -0.02488897
0003f0 52 48 d7 bf fc 8f 58 bf 8b c5 23 3f 53 77 11 c1
       -1.6818945 -0.845947 0.639733 -9.091632

block_1.c3_r.eval_conv.bias f4 [26]
000000 c4 47 59 be b2 46 16 c0 58 09 65 3f 37 d0 8e bc
       -0.21218783 -2.348065 0.8946738 -0.017433269
000010 f4 78 a6 bd 68 39 de bd 48 64 9f bf 9f 4b a5 bf
       -0.08128539 -0.10850793 -1.2452478 -1.2913703
000020 52 90 1e 3c ea b8 04 3e de 13 ae 3e ae b7 85 3d
       0.009677963 0.12961164 0.33999532 0.06529175
000030 a4 17 60 3d 10 cf 2a 3d 10 41 85 3f 68 58 3b c0
       0.054710045 0.041701376 1.041048 -2.927271
000040 a3 6c 46 3f 6d 92 f4 3c f9 b0 20 bf 60 40 ba bb
       0.77509516 0.029854978 -0.6277004 -0.0056839436
000050 90 03 0e bc 03 2f a1 3b 1d 11 95 3e 60 7e bf bb
       -0.008667842 0.0049189343 0.2911462 -0.0058439225
000060 e0 78 42 3b cc e3 24 3e
       0.0029674098 0.16102523

block_2.c1_r.eval_conv.weight f4 [26, 26, 3, 3]
000000 c9 4c aa bd 07 41 8b be 99 2f 99 bd bc bb cd bf
       -0.08315427 -0.2719805 -0.07479782 -1.6072917
000010 c2 86 a1 3f 6c 94 c5 3e c8 58 84 be 09 9f e0 3e
       1.261925 0.385898 -0.25848985 0.43871334
000020 cb ce b6 bd e5 0c 8b bd f2 3e 22 3e a5 cf 48 3e
       -0.089261614 -0.06789569 0.15844324 0.1961046
000030 a9 a4 4d 3e 74 f0 2b 3e 7d 8a 0f be 98 04 c7 3d
       0.20082344 0.16790944 -0.14017673 0.09717673
000040 28 4b 0c 3e 94 89 6b 3e 9c 2e 10 3e bf a8 20 be
       0.13700545 0.230017 0.1408028 -0.15689372
000050 95 71 cc 3d e2 25 6f 3e f9 fe eb be b9 a0 7e be
       0.099826016 0.23354295 -0.46092966 -0.24865998
000060 2e 9e b1 3e fc 83 b4 be ea 40 ed 3d 30 82 2b 3f
       0.34690994 -0.35256946 0.11584647 0.66995525
000070 6b a6 b9 be eb 60 26 3e 00 3f 96 bf 9e 0b 07 3f
       -0.3625978 0.16247909 -1.1737976 0.527521
000080 34 dc 62 bf 85 7a 0b bf 52 ff bc be 24 b1 2b bc
       -0.88617253 -0.54483825 -0.36913544 -0.010479245
000090 2c f2 11 3f 51 2a 81 be 8a 49 89 bd f0 d7 66 c0
       0.5701015 -0.25227597 -0.067034796 -3.6069298
0000a0 04 d6 18 40 09 39 03 3f a3 04 6b bf 1e 93 92 3e
       2.3880625 0.51258904 -0.9180395 0.28627867
0000b0 4a c4 6b 3f 2d d1 11 be 0f 32 0f 3d cc ca 71 be
       0.9209639 -0.1423995 0.03495985 -0.23612517
0000c0 62 bb 58 bf a9 ab 9e 3f 63 68 1b 3e 11 55 8d be
       -0.84660923 1.2396137 0.15176539 -0.27603963
0000d0 74 b2 cf 3d 18 56 55 be 91 67 e0 be 1c 9e cb 3e
       0.10141459 -0.20833623 -0.43829015 0.39769065
0000e0 ba 8a 35 3d 46 ca ff 3e 46 89 87 3f 0a 83 4c bc
       0.044321753 0.4995901 1.0588768 -0.012482414
0000f0 59 af 80 3e b8 e8 87 be ca 7f 80 3c e6 f5 30 3d
       0.2513378 -0.26544738 0.015685935 0.043203257
000100 fc 82 e1 3d 24 2e c5 bc eb a0 29 3f be db 87 3d
       0.110113114 -0.024069853 0.66261166 0.06633709
000110 75 c7 c1 bc a6 18 2f bf 0f 8c 23 3e bd 3e 0f be
       -0.023654679 -0.68396986 0.15971397 -0.13988777
000120 cd 90 3f bf 6f 32 d4 3e 1d 23 1d 3f 31 d9 35 40
       -0.74830323 0.41444728 0.61381704 2.8413813
000130 d3 fe c4 bf db d7 fe bd dc 83 d2 be 41 a6 33 3d
       -1.5390266 -0.12443515 -0.41116226 0.043859724
000140 ce c4 44 3e d0 9f 5d be 8a 5b 86 be c4 0f cf be
       0.192157 -0.21642995 -0.26241714 -0.40441716
000150 16 9d e4 3f e6 71 13 c0 b2 b2 1e bf 9e c6 4e 3f
       1.7860439 -2.3038268 -0.6199142 0.80771816
000160 81 e4 39 bf 11 cf af be f7 5c ab be 0b 91 8e 3e
       -0.72614294 -0.34337667 -0.33469364 0.27845034
000170 19 17 53 be b8 c6 4f c0 92 da 56 40 75 40 02 3f
       -0.2061428 -3.2465038 3.3570905 0.50879604
000180 ad 35 13 bf 67 df 0d 3f e8 b9 8f be ea 9a 93 3f
       -0.5750378 0.5541901 -0.28071523 1.1531651
000190 33 ec 9f 3e b9 34 c2 3e d0 dd 58 c1 2c 49 89 3e
       0.31234893 0.3793085 -13.554153 0.26813638
0001a0 8a 4e 39 be b3 de ba 3e 0e 42 45 3d 29 b4 89 3e
       -0.18096367 0.3649803 0.048158698 0.26895264
0001b0 9b c1 c3 3f cb 9a cf 3f 9b c4 12 3f 7d be f9 3f
       1.5293459 1.6219114 0.57331246 1.9511257
0001c0 e4 18 59 c1 73 4d d2 c0 e6 b9 e1 3e ae 4e ee 3e
       -13.568577 -6.5719543 0.44087142 0.46544403
0001d0 f9 b3 55 be 95 46 24 3f a6 71 64 3f 1f f8 05 3e
       -0.20869435 0.641702 0.89235914 0.13082932
0001e0 e1 60 99 40 f5 c4 78 c0 38 99 78 bf 74 bf a5 be
       4.793076 -3.8870213 -0.97108793 -0.3237263
0001f0 01 63 3c 3f a4 9a d5 bc 9a 6f 72 3c 87 af 49 bd
       0.7358857 -0.026074715 0.014797116 -0.04923966
000200 1b 7a 77 3e db 20 1f bf 02 60 a6 bd 59 20 a6 be
       0.24167673 -0.6215951 -0.08123781 -0.32446554
000210 22 44 ea be 04 4a e2 bd e3 73 97 bd 04 a4 9d bd
       -0.45755106 -0.110492736 -0.073951505 -0.07697299
000220 86 37 6f bd 7f f6 5a 3e a7 24 b0 3d 5c f4 ae 3d
       -0.05840256 0.21383093 0.08600741 0.085427016
000230 03 64 83 be 49 cc 36 3e 9d b3 61 bd 2a e4 b5 3c
       -0.2566224 0.17851366 -0.055102933 0.022203524
000240 12 d7 a0 3e 23 22 19 bd b8 fe e4 bd 3c 31 24 be
       0.31414086 -0.03738607 -0.11181396 -0.16034406
000250 e7 ba 28 3f 8d 0e d4 39 82 c5 d0 3e 7a 2b f3 3d
       0.6591019 0.00040446632 0.40775687 0.11873527
000260 fb 4b 9c 3d 1b b7 1c 3e b8 24 5b 3e 13 1b bc 3e
       0.076316796 0.15304224 0.21400726 0.36739406
000270 5e 3f 88 3e c5 b6 3b bf 45 2f b5 bd 9e 24 b4 3e
       0.26610845 -0.7332576 -0.088469066 0.35184187
000280 d1 c2 b0 be ea 49 ef 3e da ea 2b be 39 a7 a3 bd
       -0.34523633 0.4673608 -0.16788808 -0.079908796
000290 96 51 57 bf 8d b0 df bf ec 0a 10 be 40 02 73 be
       -0.84108865 -1.7475754 -0.14066666 -0.23731327
0002a0 08 00 aa bf 15 d2 c3 be 58 c9 5a 3d 26 e1 23 3f
       -1.328126 -0.38246217 0.053414673 0.64015424
0002b0 70 b8 ff bd 91 fe 36 bf 18 88 2f 41 9f c3 79 c0
       -0.124863505 -0.7148219 10.970726 -3.9025648
0002c0 00 2e c8 3e ae 46 ab 3e 76 0b 92 be 74 a4 59 bf
       0.39097595 0.33452362 -0.2852437 -0.8501656
0002d0 7b 99 07 c0 33 e3 bf 3f b7 ea 96 3d 4a 67 95 40
       -2.1187427 1.4991211 0.07368987 4.6688585
0002e0 d6 94 b6 c0 23 8c 51 3f 99 26 30 40 56 af 49 c0
       -5.7056684 0.81854457 2.7523558 -3.1513267
0002f0 dd 93 b3 3e 31 71 1f 3f d0 9b c3 3e de 58 a0 bc
       0.35073748 0.6228209 0.38204813 -0.019573625
000300 dd 88 a6 40 3d 76 23 c1 f0 de c5 bf 14 0f 4f 3f
       5.204207 -10.216367 -1.545866 0.8088238
000310 5f bf 82 3f 81 4c 2c 3f 5a f7 85 be 21 3e 31 3e
       1.0214652 0.67304236 -0.26165277 0.17308857
000320 e0 fa 95 bd d1 23 db 3e 91 8a 54 be ff ea 82 3d
       -0.07323241 0.42800763 -0.20755984 0.06392478
000330 1d 9c db be fd 5f bc 3d 90 d3 39 3d 32 bf 4f bf
       -0.42892542 0.09197996 0.045367777 -0.81151116
000340 96 b9 8b 3f f9 0e 96 be f7 87 a2 3f 84 db ba bf
       1.0916011 -0.29308298 1.2697743 -1.4598241
000350 5c 32 32 3e b4 54 18 40 8d 0b 2b c0 e2 34 5f 3d
       0.17402023 2.3801699 -2.67258 0.054493792
000360 cd 7e 61 3f 74 2b af bf 59 b9 c2 bd 1c 29 8c 3e
       0.8808411 -1.3685136 -0.095080085 0.27375114
000370 c3 c9 6d bf 95 8d 50 bf c6 2c 1c be 5f 17 14 3f
       -0.9288599 -0.8146604 -0.15251455 0.5784816
000380 89 20 02 3f 25 a0 ce 3d 71 27 8f bd 99 91 7a be
       0.50830895 0.10089139 -0.06989945 -0.24469604
000390 6d 3e 34 3f bf a1 07 3f fb ee d6 3e 8c 80 d0 3e
       0.70407754 0.5298118 0.41979203 0.40723073
0003a0 b4 f2 81 3e a8 2b bf 3e 60 53 d5 bd dd b2 12 3f
       0.2538048 0.37337995 -0.10416293 0.57304174
0003b0 6e c9 bc 3e 2e 38 0a 3f ad 8a cb 40 f8 6f 18 3e
       0.3687243 0.53991973 6.360678 0.14886463
0003c0 8e 37 57 be 1d 33 ce be ba 71 98 be 7e d1 1b 3c
       -0.21017286 -0.4027337 -0.29774266 0.009510396
0003d0 9d 39 85 bd 8d 62 c0 bd 10 6c 73 3d fd 60 76 bd
       -0.065051295 -0.09393797 0.05942923 -0.06015109
0003e0 7a 3e 0d 3c f1 16 3f bc 67 52 55 bd 45 ca e5 3c
       0.008620853 -0.0116631845 -0.052080538 0.028050551
0003f0 ae a6 a6 3c 18 10 d4 bc 3b 99 ac bc 1b d5 90 bc
       0.020343151 -0.02588658 -0.02106916 -0.017679742

block_2.c1_r.eval_conv.bias f4 [26]
000000 1a 0e 44 bf b8 29 42 bf c7 ce 49 3f d3 a3 d5 be
       -0.7658402 -0.7584491 0.7883114 -0.4172655
000010 11 3e 9a 3f e9 a1 e8 3f 49 37 92 bf d6 ef 86 bf
       1.2050191 1.8174411 -1.1423122 -1.0541942
000020 26 e1 35 3f f2 bc 34 3f 47 5e 00 3e c8 4e 9b be
       0.71046674 0.7060081 0.12535964 -0.30333543
000030 84 a3 84 be b6 26 50 bf 3c 74 48 bf fb c4 bb bf
       -0.25906003 -0.8130907 -0.7830236 -1.4669489
000040 e3 2f f4 3f 29 3b a2 c0 9b 36 fe 3e 8b 9d 8c 3e
       1.9077114 -5.0697217 0.49651036 0.27463946
000050 16 c7 f1 3e 33 63 77 3f fe 7e 1f c1 0e 1f 65 be
       0.47222203 0.9663574 -9.968504 -0.22375128
000060 0e 45 ce 3d 37 c8 87 3d
       0.10071765 0.06629985

block_2.c2_r.eval_conv.weight f4 [26, 26, 3, 3]
000000 91 3f b8 bc e7 82 9d bc d7 28 c1 39 cc a7 f9 bc
       -0.022491248 -0.019227458 0.00036842257 -0.03047552
000010 90 06 86 bd d4 4f 96 bc 48 1a 78 bc f9 9e 21 bd
       -0.065442204 -0.018348612 -0.015142985 -0.03945825
000020 f6 78 e7 bc 36 ea cc bc 70 a9 a0 3d 12 0e ab 3c
       -0.02825592 -0.025014024 0.07844818 0.020880733
000030 0b 75 13 bc b6 10 08 bd 54 96 47 3c 07 77 99 3c
       -0.009000073 -0.03321906 0.012181837 0.018733514
000040 31 b2 86 3d 78 d3 f7 3c ef 21 e2 bc e1 50 36 3e
       0.06576956 0.030252203 -0.027604071 0.1780429
000050 a3 fc f2 bc aa 45 b4 3d db 5a 8b be f2 52 6f 3d
       -0.029661482 0.0880235 -0.27217755 0.058428712
000060 60 18 e4 bc 0c e3 17 3e 1a a2 5f bd 07 a1 51 bd
       -0.027843654 0.14832705 -0.05459795 -0.05117896
000070 8f 53 1b bd 92 bd c5 bc b1 fa 91 bd 8a df ba bd
       -0.037921485 -0.024138246 -0.07127894 -0.09124668
000080 70 4b 9c bc 9f b0 cf bc cf e3 f7 bc a4 df 72 bc
       -0.01907894 -0.025352774 -0.030259995 -0.014823828
000090 95 ff b6 ba 23 72 f1 3d 09 fa 13 3d 0d 03 ca 3d
       -0.0013961667 0.11789348 0.036127124 0.09863863
0000a0 e5 33 b7 bd 6d d6 50 bd 97 4e 8c 3d 56 d9 b9 bc
       -0.08945445 -0.050985742 0.06850927 -0.022686642
0000b0 0d 83 0e bc af de f2 3c ea 35 87 bc 3d 98 21 3d
       -0.008698237 0.0296472 -0.0165052 0.039451826
0000c0 d3 0d e3 bd 62 ed 09 be f5 86 88 bd 62 d5 13 be
       -0.11086621 -0.1346946 -0.06666366 -0.14436868
0000d0 b8 59 0a be 65 f9 c2 bc 1e cc d9 3b 7a a5 69 3b
       -0.13510787 -0.023800561 0.006646647 0.003565161
0000e0 03 2c 30 3c 1a 9f 63 bd 60 39 9c bd b7 79 85 bc
       0.010752681 -0.055571653 -0.07628131 -0.01629339
0000f0 5b 41 71 bc 38 65 0d bd 1e 8a 06 bc 24 a8 d5 3b
       -0.014725055 -0.034520358 -0.008211641 0.006520288
000100 a1 da a1 bc 3d 1a f4 3a 15 ce 39 3c e4 98 40 3c
       -0.01975757 0.0018623542 0.011340638 0.011755202
000110 13 8e e3 ba 3d cd 4d bc 5f 89 0e 3c 8f e1 c9 3b
       -0.0017361067 -0.01256114 0.008699744 0.006160922
000120 40 6f 8e bc eb 92 52 bc e8 60 5b 3b fa 6f 58 bc
       -0.017387033 -0.012852411 0.0033474509 -0.013210291
000130 9c 2d 22 3e 44 48 2b 3d f0 6d ab 3b 26 5e 93 3c
       0.15837711 0.041816965 0.0052316114 0.01798923
000140 2d 36 64 3c a6 a8 fd bc bd 4f 61 bd f0 45 bc 3c
       0.013928932 -0.030964207 -0.055007685 0.022982568
000150 14 03 3d be 9b dc c5 bd 9c fc 46 bc 54 20 ee bc
       -0.18458205 -0.09661218 -0.012145188 -0.02906815
000160 d3 74 e2 3d fc 9a bd bd e3 94 db 3c e2 f3 5e bd
       0.11057439 -0.092580765 0.026804393 -0.054431804
000170 25 a1 4d 3d 74 10 e4 3d f7 e8 ad 3d 1c cc b1 3c
       0.050202508 0.11135951 0.084917 0.021703772
000180 78 ae 3a 3e bc 81 71 3d fd f2 0c 3e 69 f6 c7 3b
       0.18230617 0.058961615 0.13764568 0.0061023724
000190 fa 0a 23 3d 19 f9 15 bc 15 2c fa 3d 54 01 2f 3d
       0.03980539 -0.009153628 0.12215439 0.042725876
0001a0 79 aa 03 bc 01 34 dd ba 6b e7 2c bc 3f 27 2c 3c
       -0.008036249 -0.001687646 -0.010553221 0.010507404
0001b0 99 83 cd 3d 27 b0 53 3d 38 ba 96 3d 64 ae d5 be
       0.10034866 0.051681664 0.07359737 -0.41734612
0001c0 51 7e c9 3e 21 ac 0d bc 22 47 cd bc c9 8e 28 bd
       0.39354184 -0.008646996 -0.025058333 -0.041151796
0001d0 71 05 b5 bb 00 3e 18 bd 95 61 0d 3d 4d 43 e9 bb
       -0.0055243303 -0.037168503 0.03451689 -0.0071186186
0001e0 f0 cb ec bc f7 48 56 bc 16 ae b6 3a 48 3a 35 bb
       -0.028905839 -0.01307892 0.001393738 -0.0027653147
0001f0 b6 64 8b bc af 8d bc 3b fd b9 e8 3c df 1f c0 bc
       -0.017015796 0.0057541947 0.028408999 -0.023452697
000200 bb ab c0 b9 fd 3c a6 bd 91 5c bf 3b 02 46 31 3d
       -0.00036749043 -0.08117101 0.005839892 0.043279655
000210 fd b0 06 3d 8d 73 b4 3a 4f c0 1e 3d 29 7c 06 be
       0.032883633 0.0013767347 0.03875762 -0.13133301
000220 0c d5 29 be 18 a8 c0 bd 0c 37 3c 3e 62 e4 9f 3c
       -0.16585177 -0.09407061 0.18380374 0.019518081
000230 f1 22 5d 3e 66 3f f2 bd 51 68 67 3e 63 02 07 be
       0.2159536 -0.118284985 0.22598387 -0.13184504
000240 7c 59 73 3d e0 06 13 bd da 9b 4a bd c6 3a a7 3d
       0.05941151 -0.03589523 -0.049465038 0.08165507
000250 1d c7 27 3e 9b 34 ea 3d 33 ab 30 3d 95 ff 2b bd
       0.1638455 0.11435815 0.04313202 -0.04199179
000260 30 ea 9c 3c 51 54 38 3e 0d 83 ab bc 6d e4 71 3c
       0.019154638 0.18000914 -0.020936513 0.014763934
000270 b7 d1 4e bd b4 5a d9 3c 39 62 a7 bd 44 f0 8e 3d
       -0.05049297 0.026532508 -0.08173031 0.06979421
000280 fa cf 32 3e bf 15 30 bc 04 fd 98 3b 1d a1 8c bb
       0.1746215 -0.010747372 0.0046688337 -0.004291667
000290 35 7f 63 3c 30 5b 5a 3c 4c f5 10 bc 87 83 bb 3c
       0.013885309 0.013327405 -0.008847546 0.022889866
0002a0 d4 50 27 3c de 66 44 3c 68 b9 e3 3c 4a 33 fe bc
       0.010212142 0.011987416 0.02779837 -0.031030316
0002b0 71 63 4e bd ef 9a 24 bc 0a 07 66 bd 0e d9 2b bd
       -0.050387803 -0.010046705 -0.056159057 -0.041955046
0002c0 7e ea 21 bc 55 79 e2 bc 6c eb 88 bc 5e 80 8c bc
       -0.009882567 -0.027645746 -0.01671382 -0.017151054
0002d0 ed 64 9e 3c c2 bf 60 3b 61 22 ff bb e0 01 3c bc
       0.019335235 0.0034293984 -0.0077860807 -0.011475056
0002e0 dc 79 94 3c 80 17 49 bd c9 f7 06 bd e7 d0 2e bc
       0.018124513 -0.049094677 -0.03295115 -0.010669923
0002f0 5d 54 9c bc e2 0e 46 bc 33 00 9b bd b6 b3 29 bc
       -0.019083196 -0.012088509 -0.075683974 -0.010357788
000300 0b 3b 19 bc b8 52 d8 3d 6e 65 8d 3b 3d 95 ce bc
       -0.009352456 0.10562652 0.00431507 -0.025217647
000310 ae 1d 89 bb a5 d3 1d bd e5 cc ec 3c f6 fa 9d be
       -0.0041844463 -0.038531918 0.028906295 -0.3085553
000320 ac db 74 3c 96 94 13 3e 3e bd a4 bb 4a 0a ad bc
       0.014944952 0.1441215 -0.0050274422 -0.02112307
000330 93 11 fa ba b6 9f cc 3d bf f0 80 be 3d 04 b3 bb
       -0.0019078724 0.099914 -0.25183675 -0.0054631517
000340 9b 66 2a 3c 34 5e cd 3b e9 f4 c2 3a e3 24 1f bc
       0.01040044 0.0062673334 0.0014874014 -0.009713384
000350 eb 47 13 bc 26 70 6e 3b c4 3b 87 bb 1e f3 a6 3b
       -0.008989315 0.0036382764 -0.0041269977 0.0050949
000360 66 02 6f 3d 2a 7f 0d 3e 0e fe ad bc f3 76 89 3e
       0.058351897 0.1381804 -0.021239307 0.26848564
000370 c1 89 92 be 25 31 fb 3b 09 be d3 ba e6 67 0e bd
       -0.28620723 0.0076657706 -0.0016154657 -0.034767054
000380 f9 b2 af bc 4e e0 02 3b ba 06 b1 b9 0f ab 01 3c
       -0.021447646 0.0019970122 -0.00033765082 0.007914319
000390 9b 30 64 3d dc 9f 66 bd 01 f5 73 3b 4b d9 22 3d
       0.055710416 -0.056304798 0.003722489 0.039758008
0003a0 c0 63 51 3c 24 68 03 3d 9c b3 45 3b 3d aa 62 bb
       0.01278013 0.032081738 0.003016687 -0.0034586333
0003b0 87 57 8f bc 23 56 9b bb fc cc 36 bc 46 9e 8c bc
       -0.017497791 -0.004740493 -0.0111572705 -0.017165314
0003c0 64 ad 26 3c 97 7c 8b bb 50 e6 dc 3b 20 74 60 3b
       0.0101731755 -0.0042567956 0.0067413226 0.0034248903
0003d0 08 e2 43 bd 0e 1f 0c 3b 49 60 27 3c 0f 04 bf 3c
       -0.047822982 0.0021380815 0.010215827 0.023317365
0003e0 84 19 3e bc 80 70 f9 bb f7 4d ae bc 11 5c a7 3c
       -0.011602763 -0.007612288 -0.02127741 0.020429643
0003f0 ff 95 92 3d 9b 8e 67 3d 64 e8 fa 3d d9 59 b1 3d
       0.07157516 0.056532484 0.12251356 0.08659715

block_2.c2_r.eval_conv.bias f4 [26]
000000 f7 d9 8f 3e 02 e5 60 be b1 ca 87 3d 28 83 d2 3f
       0.2809598 -0.2196236 0.06630457 1.6446276
000010 1e 6d 34 bf ba 71 a3 3f 7f cc 00 3f 3f f3 23 c0
       -0.70479 1.2769082 0.50312036 -2.5617216
000020 77 f8 20 be f4 16 20 bf 80 75 67 40 43 96 1f 3f
       -0.15719782 -0.62535024 3.6165466 0.62338656
000030 13 17 58 3f a0 2a a1 3f 20 09 0d be a9 41 69 bf
       0.8441021 1.2591133 -0.13773012 -0.91115814
000040 ea b3 d9 3e fa b1 9e 3e 93 2b 56 bf 65 ac cf 3f
       0.42520076 0.3099516 -0.8366024 1.6224486
000050 0c 6c 9d 3f 12 2b 95 be d5 c4 a1 bf 19 98 b4 3f
       1.2298598 -0.29134423 -1.2638193 1.4108917
000060 58 7c fc 3e 8f da 83 3f
       0.49313617 1.0301074
