model_zoo/team23_DSCF.pth (torch, 535137 bytes, 44 tensors)

conv_1.eval_conv.weight f4 [26, 3, 3, 3]
000000 de 57 05 bb 38 ff 79 3b c4 bc c7 39 db 76 bb 3b
       -0.0020346562 0.0038146507 0.0003809688 0.005720956
000010 1e 0f ac 3d ab 59 2d bb 9f 44 37 bb ca ab 16 3b
       0.08401321 -0.0026451151 -0.0027964485 0.0022990578
000020 ac b1 0a bb fe b7 47 ba af 43 7d ba f5 80 da ba
       -0.002116303 -0.00076186645 -0.000966127 -0.0016670512
000030 7c c5 62 ba 0e 9a 34 3d a1 60 d4 3b 96 cc 93 b9
       -0.0008650643 0.04409223 0.0064812456 -0.00028190453
000040 7e ac 1d ba fb c4 bb 3a bc bb 29 3a c2 8a bc 3a
       -0.0006014778 0.0014325673 0.0006474813 0.0014384615
000050 43 17 0a 3b 44 3c 34 3a b0 a1 0c be 72 a3 08 bb
       0.0021070994 0.00068754354 -0.13733554 -0.0020849374
000060 18 a2 74 3b 1d c8 55 bb 9c 85 ec 3a 47 aa 03 3b
       0.003732806 -0.0032620498 0.001804519 0.0020090507
000070 dc 0c c4 ba 9b e7 49 ba 7f 23 9d 3b 00 14 15 39
       -0.0014957446 -0.00077020534 0.004795491 0.00014217198
000080 55 44 13 bb 32 8a a6 3a ff 9b 49 bb f4 94 82 ba
       -0.002247115 0.001270598 -0.0030763147 -0.0009962604
000090 a4 ae b3 ba 57 4c 8e ba 70 29 14 3b 91 df e4 bb
       -0.0013708663 -0.0010856491 0.0022607706 -0.006984659
0000a0 00 f1 e0 3a 98 b3 e8 3a 7b 6d 6a bb 92 ea 90 3b
       0.0017161667 0.0017753718 -0.0035770822 0.004422494
0000b0 4d de fe 3a f3 61 c5 3a 96 95 01 3b 9f a7 ea b9
       0.0019444913 0.0015059098 0.0019772998 -0.00044756845
0000c0 0c f0 dc ba 88 42 38 39 fa 11 36 ba 5e 41 9a 3b
       -0.0016856208 0.00017572392 -0.0006945428 0.0047074994
0000d0 10 0d 19 bb 98 e0 cb ba a2 36 3d ba b1 31 b5 bc
       -0.0023353733 -0.0015554605 -0.0007217919 -0.022118421
0000e0 92 af 9e 3a 96 da d1 bc 8a 95 b6 3d 0c a3 b0 bc
       0.0012106767 -0.025616925 0.08915241 -0.021562122
0000f0 5b 77 aa ba 77 88 86 bc ad 1b a9 b9 7f 7a ad ba
       -0.0013005541 -0.016422493 -0.00032254812 -0.0013235359
000100 ff 7f dc bc e7 45 df bb ce 55 eb bc f4 73 e8 3d
       -0.026916502 -0.006813753 -0.028727438 0.11350241
000110 ef 37 bc bc 12 28 4e 3a 90 f2 9c bc 76 39 3b 38
       -0.02297589 0.00078642473 -0.019158632 4.463779e-05
000120 e0 a9 1d 3a cd e5 9f bc 36 ac 81 ba 96 b5 88 bc
       0.0006014388 -0.019518757 -0.0009893242 -0.01668815
000130 24 85 aa 3d 3b 7a 7b bc 09 c5 4a 39 67 4a ae bc
       0.08326176 -0.015348966 0.00019337623 -0.021275712
000140 a4 8f 14 ba 96 b4 dc ba f9 7a 1d 3b 46 12 26 3b
       -0.0005667156 -0.0016838487 0.0024029596 0.0025340482
000150 6c 48 c6 3a a8 19 83 bc 15 69 73 ba ea 6c f1 3a
       0.0015127785 -0.016003445 -0.0009285373 0.00184193
000160 05 e6 13 3b 25 f3 20 bb 5a fa 40 3b 92 78 9a ba
       0.0022567522 -0.0024558988 0.0029446096 -0.00117852
000170 33 58 b7 bb 79 65 85 3a 74 10 98 3b 57 f0 5a 3b
       -0.005595231 0.0010177336 0.0046406332 0.0033407414
000180 b4 81 e9 ba b6 f6 98 37 3e 45 56 3b 4f 68 63 b9
       -0.0017815144 1.8234696e-05 0.003269508 -0.00021687265
000190 17 a1 81 3a e7 63 08 3b db cc 83 bb 08 0c 28 3c
       0.0009889927 0.00208115 -0.0040222234 0.010256775
0001a0 4d 0b 80 bb af 12 09 3a 1e 6b b8 ba 73 d0 24 b9
       -0.003907597 0.00052289193 -0.0014070009 -0.00015717912
0001b0 89 e5 98 37 0c b0 35 3b 81 4c 80 bb ab 8c 85 bb
       1.8226698e-05 0.002772334 -0.00391537 -0.004075607
0001c0 10 00 1c 3b e3 fc 0b 3b 01 df 26 39 4b 23 24 ba
       0.0023803748 0.002136045 0.00015914069 -0.00062613626
0001d0 c7 30 36 3a 5d 83 11 3a 37 b2 12 bb 43 de 0e 3b
       0.00069500174 0.00055508857 -0.0022384056 0.0021799959
0001e0 34 5c 74 ba 70 51 ee 3a f9 93 0e bb 63 95 c9 3a
       -0.00093216007 0.0018182229 -0.002175568 0.0015379604
0001f0 0e 1d 10 ba 26 7d 25 ba e5 4e c6 39 3a 12 92 3a
       -0.00054974935 -0.0006312899 0.00037824284 0.0011144348
000200 4d ed 03 3b 07 84 40 3b 00 3f cf bb 35 73 e8 b9
       0.0020130456 0.002937557 -0.006324649 -0.00044336324
000210 6c 0a 9a 39 4c 98 2c 3a 27 70 28 3a 45 f0 8e 3a
       0.00029380934 0.00065839733 0.00064254034 0.0010905346
000220 ae f1 c3 bc 64 a8 00 3a c4 d6 74 bc 54 53 63 3e
       -0.023918953 0.00049079047 -0.014943782 0.22199756
000230 7c c5 62 bc 41 6f e1 ba ea fc 49 bb 34 38 69 bb
       -0.013841029 -0.0017199294 -0.0030820915 -0.0035586478
000240 1f 0c a0 3b f7 65 aa 3c 31 53 cb 3b fb 70 74 38
       0.0048842574 0.020800574 0.0062049855 5.8279355e-05
000250 a5 bf 99 be 71 99 87 bb b7 ef c6 3b 5b 14 bc bb
       -0.30029026 -0.0041381647 0.0060710567 -0.0057397312
000260 e7 78 18 3c 04 19 5e bb 9d 7f 6d bb 9e 93 86 bb
       0.009306169 -0.0033889422 -0.0036239394 -0.004106953
000270 37 28 2f 3c a4 75 b5 3d 04 e1 84 3c 30 1b a1 bb
       0.01069074 0.08860329 0.016220577 -0.004916571
000280 1d e4 03 3c a8 f2 e5 bb 77 93 2e 3b ae 77 8e ba
       0.008049992 -0.0070174523 0.002663819 -0.0010869408
000290 93 5b 04 bb e8 19 27 bb 10 41 82 bb 1d 5f aa 3b
       -0.0020196184 -0.002549762 -0.003975041 0.0051993267
0002a0 75 80 85 3b b6 14 aa bb e8 f9 37 ba e9 3f 0a bb
       0.004074151 -0.005190457 -0.0007018135 -0.0021095222
0002b0 1b e4 b5 b9 1f a1 5d 3b af 11 3c bb b7 a7 49 3c
       -0.00034692962 0.003381796 -0.0028697064 0.012308053
0002c0 a8 40 7f ba a1 82 29 bc 84 32 2d 3c af 53 b2 bb
       -0.00097371126 -0.010346086 0.010571126 -0.005442105
0002d0 53 c5 36 3a 9f c8 35 3b 5f 07 6a bb d7 6d a0 3b
       0.00069721526 0.0027737988 -0.003570996 0.0048959064
0002e0 d4 77 45 bc 25 3d 03 3b 5f 77 7f 3b d0 b3 38 bb
       -0.012052495 0.0020025459 0.0038981063 -0.0028183348
0002f0 0a 06 0f 3b 97 ac 8c 3a 5a ee 2c 3b bd 82 85 bb
       0.0021823668 0.0010732588 0.0026387186 -0.004074423
000300 39 9d af 3b 00 1c 04 bc 16 82 db 3a 3c 92 b8 b8
       0.0053593186 -0.008063316 0.0016747143 -8.801042e-05
000310 98 52 a7 3b d5 0a a6 ba d0 e7 88 bb 37 7f 30 3b
       0.0051062815 -0.0012668023 -0.004178025 0.0026931295
000320 ad 85 6c 3a ee 4f 51 bb 00 c5 77 3b 61 4b f6 3a
       0.0009022605 -0.003193851 0.003780663 0.0018790775
000330 ac ff ed bb 41 70 2c 3b 47 60 e6 b9 ff 88 ab 3a
       -0.0072631445 0.0026312026 -0.0004394075 0.0013087093
000340 ee 69 d2 ba b8 39 f7 3a e9 4a ee 3a 00 ae 16 bb
       -0.0016053298 0.0018861806 0.0018180284 -0.0022991896
000350 bc 3d 4e b9 3a 78 b1 3b c5 c4 72 bb 9f 63 16 3b
       -0.00019668689 0.0054159435 -0.0037043553 0.0022947562
000360 e6 b1 5b bb e5 d9 f5 ba 59 db 08 ba 67 38 fd 39
       -0.0033522784 -0.0018756954 -0.00052206736 0.00048297943
000370 80 b9 6b 3b e3 22 cd 3a 31 2f 91 bb 6d 17 da 3b
       0.003596872 0.0015650656 -0.0044306745 0.0066556246
000380 e3 55 71 bb 56 a6 8e 3b 03 5c 63 bb 46 db 6e 3a
       -0.0036824874 0.004353325 -0.0034692294 0.0009111654
000390 f7 96 56 bb 00 7a 9f 3b 2b 60 74 bb 90 c8 ea 39
       -0.003274379 0.0048668385 -0.0037288766 0.0004478139
0003a0 26 20 06 bb c6 19 1a 3b a2 e1 12 bb 00 b5 6c 3b
       -0.002046594 0.0023513897 -0.002241232 0.0036118627
0003b0 c5 7b dd 3a 0f b7 4f 3a 00 bf 37 bb 9d 95 d5 39
       0.0016897848 0.0007923701 -0.002803743 0.00040737996
0003c0 1f 87 39 3b fc e3 00 bc 1f cd 4b 3b 72 02 e0 b8
       0.0028309298 -0.007866856 0.0031097603 -0.00010681608
0003d0 24 fe a9 3c 23 76 b4 bb af 80 28 3d 90 b0 0a be
       0.020751067 -0.005507247 0.041138347 -0.13543916
0003e0 df ca 49 3d 94 33 6c ba fb c8 af 3c 09 c8 20 bb
       0.04926574 -0.0009010371 0.02145814 -0.0024533293
0003f0 76 fa 83 ba da 12 52 3c ee 93 6d 3b 38 88 dd 3b
       -0.001006915 0.012821877 0.0036251503 0.0067606233

conv_1.eval_conv.bias f4 [26]
000000 f2 7a 75 3f 46 4a 10 be ce a6 3a bf 89 46 96 bf
       0.95890725 -0.14090833 -0.72910774 -1.1740276
000010 5b 32 f5 be 28 e8 5f 3e 6d 06 05 be 68 48 a7 bd
       -0.4788998 0.21865904 -0.12990732 -0.08168107
000020 6f ae 20 3f 07 38 24 bf ad ca 31 bf a0 9f 32 3e
       0.62766165 -0.6414799 -0.69449884 0.17443705
000030 20 50 ea 3b 18 d5 cd 3e 44 91 8d bd 16 80 06 be
       0.007150665 0.4020164 -0.06912473 -0.13134798
000040 7d 44 7d 3e 70 6d c4 3c 37 38 12 be d0 dd dc 3d
       0.24733157 0.023977965 -0.14279257 0.10784495
000050 f4 e1 5b be 47 d7 af bd 3b 6c 98 3e 80 cd 43 bc
       -0.21472913 -0.08585983 0.29770073 -0.0119508505
000060 a8 02 41 bd 00 33 e0 3c
       -0.047121674 0.027368069

block_1.c1_r.eval_conv.weight f4 [26, 26, 3, 3]
000000 35 4b 02 bd 77 42 a8 bd a2 65 30 bd e4 56 de 3b
       -0.031810004 -0.08215802 -0.043065675 0.0067852605
000010 3c 99 16 bf e6 60 43 3d 1f c3 28 bd b4 42 54 bc
       -0.5882757 0.04769983 -0.041201707 -0.012955356
000020 79 7c 66 bc 52 00 d9 bd db c5 6d 3d 52 b4 ad bd
       -0.0140677625 -0.10595764 0.058050018 -0.08481659
000030 1a 63 47 bd 70 8b 7a be 78 99 48 bd 87 4a 3d be
       -0.048678495 -0.24467254 -0.048974484 -0.18485461
000040 70 0f 35 3e 48 2c f2 bd db e9 02 bd 7c 3d 1a bd
       0.1768167 -0.11824852 -0.031961303 -0.037656292
000050 13 85 26 bd 33 7b 64 3d 88 b1 5f 3b 93 7d c4 3b
       -0.040654253 0.055781554 0.0034132916 0.005996415
000060 00 0c aa 3c 62 e9 2e bb 4b 0e 15 3d 82 1f 43 bc
       0.020757675 -0.00266894 0.036390584 -0.0119093675
000070 42 2e 7f 3d ac 0d c6 3a a9 b0 a5 bc de 18 85 bd
       0.062299974 0.0015110276 -0.02022584 -0.06498884
000080 90 1d 8f 3d a8 7e 11 3d 59 c9 0f bd 57 0a 17 3d
       0.069880605 0.03552118 -0.03510413 0.036875095
000090 90 2e ed 3c 7f 2d dc bd 39 76 18 3d 26 f2 aa bd
       0.028952867 -0.10750865 0.03722212 -0.083469674
0000a0 5a 23 1f 3e fd fb 35 bd 9d 8c f5 3d 7c 79 bd bd
       0.1554083 -0.044429768 0.119897105 -0.09251687
0000b0 fc 68 a0 3d 77 36 ad bc 3c a3 71 bd 86 9f 6c bc
       0.07832524 -0.021144135 -0.058993563 -0.01444233
0000c0 32 2c 02 3d 7d 17 7b be 64 aa 4a 3d 23 47 0c bb
       0.03178043 -0.24520679 0.049478903 -0.0021404705
0000d0 01 19 36 bd 84 83 8f 3d 61 58 6a 3d 67 3f e9 bc
       -0.04445744 0.070075065 0.05721319 -0.028472615
0000e0 c7 54 30 bd 28 28 d4 3c 3d 67 ef 3c 56 1d a3 3b
       -0.0430496 0.025898054 0.029224033 0.0049778624
0000f0 c7 0e 2d be 4e 1f 9a 3d c4 99 9f 3d 1e 84 56 3b
       -0.16900168 0.07525502 0.07793 0.0032732557
000100 74 2a 92 3d 9e 29 52 3c 90 75 f3 3c 8f 6f bc 3d
       0.071370035 0.012827305 0.029719144 0.092009656
000110 cb f9 3d 3e 03 36 48 bb 9e b3 04 bd 9d 20 62 3e
       0.1855232 -0.0030549772 -0.03239786 0.22082753
000120 8e 0b d4 3d d3 e6 a5 bc 37 6c 6b 3d 03 9a dc bd
       0.103537664 -0.020251667 0.05747625 -0.10771563
000130 5f 3a e6 bd ee 45 fe bd ea ec 0a 3d 6a 0b b6 bc
       -0.11241602 -0.12415682 0.033917345 -0.02222224
000140 df ca c9 bd 2b f1 6b bd 40 ac 9a bd 4e a5 39 3d
       -0.09853148 -0.057603043 -0.07552385 0.045323662
000150 7c 90 ab 3d 11 e9 66 bd 10 99 89 bd dc 4c 62 3d
       0.083771676 -0.056374613 -0.067186475 0.05524908
000160 35 f6 93 3c 9f e3 64 bd 46 fe f9 3a ad 77 35 bb
       0.018061737 -0.05588114 0.0019072972 -0.002768974
000170 26 6e bc bb 7e 80 1d bb c4 07 1e 3c 2a 0f 0c bb
       -0.0057504354 -0.0024032886 0.009645406 -0.0021371343
000180 80 16 d4 bb d6 a3 7f 3b c0 5d 01 3b f7 c4 92 b8
       -0.006472409 0.0039007566 0.0019739717 -6.99851e-05
000190 76 27 66 bc ee 21 2a 3b e6 e1 04 3c 53 01 a1 3c
       -0.014047494 0.0025960165 0.008110499 0.019653952
0001a0 a4 91 f3 ba ab 1a 18 ba 4e 08 b7 bb 3a aa 14 3b
       -0.0018582833 -0.00058023137 -0.005585707 0.002268447
0001b0 83 61 bc 3c 1c 59 c2 3c 23 04 29 3d ba 6b 0e bd
       0.022995716 0.023724131 0.04126371 -0.034770705
0001c0 df c4 ec 3c 5f 24 be 3a 2f 9e 04 bd c4 be 5d 3c
       0.02890247 0.0014506689 -0.032377418 0.013534252
0001d0 33 c7 ad bc d9 12 00 3b 7d 90 45 3c 73 0d b0 3c
       -0.02121315 0.0019542484 0.0120583745 0.021490788
0001e0 a8 71 53 3b a7 e6 a9 3c 78 a9 89 3c 44 28 14 3c
       0.003226379 0.020739866 0.016804442 0.009042803
0001f0 1d 38 48 bb f8 56 db bb 97 ad 2a 3c a9 e5 d7 3d
       -0.0030551024 -0.006693717 0.010417364 0.10541851
000200 b3 b8 78 bd 47 5b 99 bd 47 0d c7 bd c1 d6 56 3e
       -0.060723018 -0.07488113 -0.09719329 0.2098036
000210 ba e1 91 ba 0b 55 41 3e 16 37 25 be 38 30 7f bc
       -0.0011129894 0.18880098 -0.16134295 -0.015575461
000220 e1 e7 5a 3c fa b9 4b bd f4 9e 17 be c9 22 da 3d
       0.013360948 -0.049737908 -0.1480673 0.10651166
000230 8a 39 96 bc 0b ef ec bc c8 c5 31 be 50 ea b7 bd
       -0.018337984 -0.028922578 -0.17360604 -0.089802384
000240 16 9f 40 3d d9 a8 4a bc db d7 ba bd 68 d3 57 3d
       0.047026716 -0.012369358 -0.091232024 0.052691847
000250 84 e8 0e be 7d 22 8b bd 33 1b 23 3c 11 f1 92 3b
       -0.13955885 -0.067936875 0.009955215 0.0044843038
000260 94 f0 a6 bd 32 fd 09 3d 9d 88 f9 3c 68 e6 95 3d
       -0.081513554 0.03368873 0.03046065 0.07319337
000270 7d 18 23 bd 65 d5 a5 bd 10 5e 3b bc b9 29 36 3c
       -0.039818276 -0.080973424 -0.0114360005 0.011118346
000280 18 ed 75 ba d7 05 5e 3d 85 9c 64 3b 5c 97 80 3b
       -0.0009381338 0.054204788 0.0034883332 0.0039242934
000290 22 33 61 bd 2a c4 cf 3b c9 89 d0 3c 03 cd 70 3d
       -0.054980405 0.0063405233 0.025456326 0.058789264
0002a0 03 88 d1 3c a7 01 bd 3c d8 34 71 3d 12 b7 cc ba
       0.02557755 0.023072077 0.058888286 -0.0015618524
0002b0 2d 73 98 bc fc b8 96 3c a2 65 7c bd d9 00 23 3c
       -0.018609608 0.018398754 -0.061620362 0.009948933
0002c0 e5 b4 43 3d 63 42 cc 3c 24 a1 6c bd 78 45 0f 3d
       0.047779936 0.024934 -0.057770863 0.03497836
0002d0 56 23 fe b9 99 c5 76 bc cd a1 06 bd 37 e8 13 3d
       -0.00048472983 -0.015061759 -0.03286915 0.03611013
0002e0 63 65 05 3d b8 a5 a9 3b 03 ae cc 3a 25 dd 4a bc
       0.032567393 0.005177226 0.0015615824 -0.0123818265
0002f0 86 21 f3 3b b7 4b 4b 3d 77 d6 42 3d 39 21 10 3a
       0.007419768 0.049632754 0.04756781 0.00054981146
000300 cd dc 38 bd f0 97 88 3d 99 69 cc bc 98 6a f0 3b
       -0.045132447 0.06669605 -0.024952697 0.0073369257
000310 a0 b1 a5 bc b5 51 4c bc 7f b5 f4 bc 55 0e fc 3c
       -0.0202263 -0.012470652 -0.0298717 0.030768553
000320 88 7d ab 3d f5 4a dd bc 47 ce d4 3d 63 a9 1d 3d
       0.083735526 -0.027013281 0.10390907 0.038491618
000330 a5 36 c1 3d de 18 7a bb 90 39 8a 3c e6 01 3d bc
       0.09434251 -0.0038161795 0.016873151 -0.011536097
000340 d9 91 2f 3c 60 20 c1 bc 42 78 d5 3b 44 96 dd bb
       0.010715925 -0.023575008 0.00651458 -0.006762298
000350 7b 4b fc bb 08 5f 4e 3d e5 80 f6 3d 19 95 ca 3c
       -0.0076994277 0.050383598 0.120363034 0.024729298
000360 38 3d 8c 3d 12 3a 1f 3d fc c3 c4 3c 3c 11 30 3d
       0.06847614 0.03887374 0.024019234 0.042985186
000370 2c a4 58 3d 98 84 61 bb d4 d3 88 bb 77 33 fb bc
       0.05289094 -0.0034411307 -0.0041756425 -0.030664189
000380 31 e1 0a bd ea 04 e3 bb 02 42 04 bc e4 ce 85 3a
       -0.033906166 -0.006928076 -0.008072378 0.0010208753
000390 f1 66 1e 3d fc 8b 47 3e 31 2b 0c 3e 40 9f 4a bc
       0.03867239 0.19486994 0.13688351 -0.01236707
0003a0 6f 09 a1 3c 7f 1b c3 bc 47 68 7d be c6 77 e7 be
       0.019657819 -0.023816822 -0.2474681 -0.45208567
0003b0 af 6f 62 be dc a0 fe 3d 48 c0 93 3e 38 ab 26 3e
       -0.22112916 0.12433025 0.28857636 0.16276252
0003c0 62 47 93 3d e6 7b 4f 3e 76 54 99 3d e0 e0 b7 bd
       0.071913496 0.20262107 0.07486813 -0.089784384
0003d0 33 8d 11 3e 71 76 0c bd 5a 20 a8 3d 7a 1d 69 be
       0.1421402 -0.034292642 0.082092956 -0.2276515
0003e0 70 ac 8d 3d 22 a1 83 3d 14 27 3f 3c 9d 61 2b 3d
       0.069176555 0.06427218 0.011667032 0.04184114
0003f0 df b2 e0 bc 2b 69 39 bd ce 38 30 bc 81 e6 23 bd
       -0.027429042 -0.04526631 -0.010755731 -0.040014748

block_1.c1_r.eval_conv.bias f4 [26]
000000 37 68 cc be 0c bb da 3f 83 80 ce 3d 0e 71 bd 3f
       -0.3992326 1.7088332 0.100831054 1.4800127
000010 3a ef 0a 40 fa ae 17 40 68 79 5a 3e 20 ec da bc
       2.1708512 2.3700547 0.21335375 -0.026723921
000020 be 44 ef be ac 16 82 3f 55 b9 4e 3f f5 cf 96 3f
       -0.46732134 1.0163169 0.80751544 1.1782213
000030 1e 97 a5 3f 68 5e 57 c0 4c df 1f bf f4 0a 21 bd
       1.2936742 -3.365137 -0.624501 -0.039317086
000040 86 10 4d c0 cc 9a 16 bf 9b ef cf bd f8 da fe bf
       -3.2041335 -0.5882995 -0.10153123 -1.9910574
000050 58 83 3e bf fe d7 fe be 86 6f d8 be ba 6c c1 3e
       -0.74419165 -0.49774164 -0.42272586 0.37778264
000060 08 45 64 40 9c b8 a6 3d
       3.5667133 0.0814068

block_1.c2_r.eval_conv.weight f4 [26, 26, 3, 3]
000000 c2 1d 9b 3c 75 f4 5e 3d 51 f9 9a 3c c2 79 1b 3c
       0.018935088 0.05443235 0.018917711 0.009489479
000010 2e 28 15 be 4b 4d ce bc 79 1b e4 3c 77 c4 0c 3d
       -0.14566109 -0.02518334 0.027845131 0.03436705
000020 1b 3d 8a b8 e5 7f c4 3c 1a 85 c3 3b a8 cf 4b bb
       -6.5917346e-05 0.023986766 0.0059667947 -0.0031099115
000030 78 a0 20 3d b1 bf 24 3d ec c4 2d bc cd 51 92 3c
       0.039215535 0.040221874 -0.010606032 0.017861271
000040 82 79 61 bd 2b 7c ab 3c 4f 40 2b 3b 66 65 d4 3b
       -0.05504752 0.020933231 0.002613086 0.006481814
000050 18 49 d8 b9 68 2f ac 3a cf 9f 53 ba 91 ef 2b 3b
       -0.0004125319 0.0013136687 -0.00080728246 0.0026235322
000060 dd ba 0f 3a 8b 0d 8d bb 53 04 3c 38 a2 4f 09 bd
       0.0005482862 -0.004304593 4.482672e-05 -0.03352321
000070 c6 f1 be bc 3a da 08 bd 1e 0b bd bc 3e e5 06 3c
       -0.023308646 -0.033411242 -0.02307659 0.0082333665
000080 86 5c 8e bc 56 20 ec 3b 5b 7c 47 bd bc c4 8d bb
       -0.017378103 0.007206003 -0.04870258 -0.004326431
000090 4e 65 c9 3c 31 18 4d 3c 39 9c 71 3c 1b ff 5c 3d
       0.024584439 0.012517975 0.014746719 0.053954225
0000a0 26 86 e3 3c bd f2 ee 3c 70 b6 be bb 35 97 a6 bb
       0.027773928 0.029168481 -0.005820088 -0.0050839433
0000b0 d0 8d d0 3c bb 55 84 3d 15 a3 60 3d 3a 2b 7e bc
       0.025458246 0.06461664 0.054843027 -0.015513236
0000c0 5f 0e d7 3c 44 05 43 bd f3 9a 1a 39 83 66 43 3d
       0.02625197 -0.047612444 0.00014744308 0.047705185
0000d0 4d 85 1c bd e8 d9 27 bd 5c 71 3e 3b aa 91 f3 bb
       -0.038213063 -0.040979296 0.0029059267 -0.007433136
0000e0 45 69 98 bb c3 17 7b 3b d1 17 22 bd 5f 1e a9 3a
       -0.004651221 0.0038313724 -0.039573494 0.0012902728
0000f0 1c df 84 ba 65 7c 9b 3b b3 fb cc 3b 1c 43 a7 bc
       -0.0010137293 0.0047450536 0.006255591 -0.020417742
000100 9e 33 c4 bc b3 91 55 bb 55 9a 04 3c d8 75 9b 3d
       -0.023950394 -0.0032588064 0.008093436 0.07590836
000110 e4 9a 5e bc fe 8c 64 bc e0 dd 9b bb 18 71 3f bc
       -0.0135867335 -0.013949631 -0.004756674 -0.0116846785
000120 3e a1 06 3c 41 61 ad bb 1d 80 d0 bb e1 a2 b7 3c
       0.008217154 -0.0052911346 -0.0063629285 0.022416534
000130 62 22 a0 ba 6a 70 b1 bb 48 be c7 3b e8 c0 1f bc
       -0.0012217278 -0.005415012 0.0060956813 -0.009750582
000140 0b 63 2f ba f1 d3 21 bd 1c f4 94 3c aa bd e1 bb
       -0.0006690479 -0.039508764 0.018182807 -0.006889065
000150 ab b7 30 bd 9c 79 0f 3e 00 e0 09 3c 18 67 cf bc
       -0.04314391 0.14011234 0.008415222 -0.025317714
000160 16 21 a8 bc b9 b2 b0 bc 1a 0b e8 3a 00 25 20 bc
       -0.02052359 -0.021569597 0.0017703504 -0.0097744465
000170 ea 8e 27 bb af 61 2f bd 41 69 1e bd e5 70 c4 3b
       -0.002556736 -0.042817768 -0.038674597 0.0059949034
000180 d4 71 34 3c c3 17 27 3a 35 16 0f 3a c0 e4 5b 3c
       0.011013467 0.0006374085 0.0005458326 0.0134212375
000190 ab 30 0a ba 1b 21 72 3c 81 a1 a4 3d b2 f7 ab 3d
       -0.00052715343 0.014778401 0.08038617 0.083968535
0001a0 c1 2f 17 3a 68 2f c3 3c 59 76 57 bd 07 c8 9b bc
       0.0005767309 0.023826316 -0.0526031 -0.019016279
0001b0 e8 85 09 bd 2d e7 61 3d bf 66 b1 bb b8 fc 1a bd
       -0.03357497 0.055152107 -0.0054138596 -0.037838668
0001c0 4d 9b dd 3d 8d 83 02 bb 08 6f 1f bd bf a9 bf bc
       0.10820637 -0.0019914836 -0.038924247 -0.023396371
0001d0 f1 63 c0 bc fc b7 95 be 66 a6 61 be c9 09 55 be
       -0.023485156 -0.2924193 -0.22036132 -0.20804514
0001e0 97 c0 d8 3d 43 6e 16 3f cd 7c 8a bd 78 93 41 bd
       0.105836086 0.58761996 -0.06762085 -0.047259778
0001f0 6e 19 e2 3d e6 65 e6 bd 55 06 14 bc 38 49 8a 3a
       0.110400066 -0.11249904 -0.009034713 0.0010550385
000200 c2 c9 8a 3c 9e d4 b9 3c 2a a9 ba bd 50 a6 43 3d
       0.016941909 0.022684392 -0.09114297 0.04776603
000210 e2 7e 77 bc 4d 2c 02 3d 18 f5 0b bb 9c a5 62 bb
       -0.015105935 0.03178053 -0.0021355804 -0.0034583574
000220 37 07 ce bb 97 62 df ba 80 cb c2 bc e2 74 74 bd
       -0.006287481 -0.0017042932 -0.023778677 -0.05968178
000230 b6 ee 0b bd c4 56 80 ba 34 72 33 3c 7f 39 9e ba
       -0.0341632 -0.0009791483 0.010952521 -0.0012071579
000240 ac 40 73 be 5a 65 9e be e2 fb d1 bd 0a ec bb be
       -0.23755139 -0.309367 -0.10253121 -0.3670352
000250 2b bd 3b 3f d8 cd 5e be 6e df 32 3c 40 7e 99 be
       0.7333552 -0.2175821 0.010917528 -0.29979134
000260 38 5d 4a 3e dd 01 3e bc 63 6e 01 bc dd 9e 37 bc
       0.19762123 -0.011597124 -0.007899853 -0.01120731
000270 d5 39 f9 3a b5 e5 b8 ba 86 b3 80 bb 23 f2 5e bb
       0.0019014428 -0.0014106544 -0.003927651 -0.0034018836
000280 63 90 50 3c 27 9d b3 bb 00 56 c6 bc 1a f1 e6 bc
       0.012729737 -0.0054813805 -0.02421093 -0.028191138
000290 c5 45 f6 3a d5 39 42 bb f2 5e 21 3b a6 59 cc 3b
       0.0018789103 -0.0029636521 0.0024623242 0.006236273
0002a0 74 6e 7b bb ca c0 71 3c 88 7c e7 3c 31 a9 30 3d
       -0.0038365396 0.014755437 0.028257623 0.043130103
0002b0 34 2d 5a 3d de 8c b5 ba 4d 11 f8 3b 71 7e 4a bc
       0.053265765 -0.0013851186 0.007570422 -0.012359248
0002c0 b1 76 3d 3c 2c a0 89 bc 23 d3 17 bd 0d a3 6e bd
       0.011563943 -0.016800009 -0.03706659 -0.058260966
0002d0 f9 24 e4 bd 4b 6b 1c be 5a eb 90 bd 2c 82 05 be
       -0.111398645 -0.15275304 -0.0707614 -0.13037938
0002e0 60 f5 c1 3e 77 f0 89 bd 4e 5e 9d 3d 03 1a 27 be
       0.3788252 -0.06735318 0.07684003 -0.16318516
0002f0 c0 8f d5 3b 88 2e d4 bc 74 28 22 3b 06 d3 a6 36
       0.0065173805 -0.025901094 0.002474335 4.971752e-06
000300 41 da 56 bd 79 ca aa bc d2 b3 9a 3b 0b fd 69 bc
       -0.052454237 -0.0208485 0.0047211433 -0.014281522
000310 19 ee c3 3b d8 f2 fe 38 0f a2 c6 3c e3 45 ad 3c
       0.005979311 0.00012156897 0.024247197 0.021151489
000320 41 49 db 3c 80 1e ac 3b 7d 04 c0 bc 73 bd ae 3c
       0.026768329 0.0052526593 -0.02343964 0.02133057
000330 91 38 0e bd 1d 80 90 3d f6 df f2 39 20 8a bc 3b
       -0.034721915 0.07055686 0.000463247 0.0057537705
000340 04 f7 4f 3c df 53 e8 ba 48 12 a9 bc 0d bf 65 bc
       0.01269317 -0.0017725191 -0.0206386 -0.014022601
000350 7b 29 ed 3a 39 d0 2e bb 0a cb a4 bb e9 77 77 3b
       0.0018094027 -0.0026674403 -0.005029087 0.003776068
000360 17 19 f0 39 56 c9 a1 bd f7 0f e4 bd b6 41 06 3c
       0.0004579506 -0.0789973 -0.111358576 0.008194378
000370 5d bf 1e 3d d6 6e ac 3c 0c 71 00 3d 1d 39 97 bd
       0.038756717 0.021048944 0.03135781 -0.0738394
000380 09 49 5d 3c f0 76 03 bb 82 de a8 39 f5 7c c2 3b
       0.0135061825 -0.0020059906 0.00032209238 0.005935306
000390 af 48 4e bc 87 b1 8d bc 53 80 ca ba 7c 23 29 bc
       -0.012590571 -0.017296566 -0.001544962 -0.010323402
0003a0 40 a4 c4 3c 3a 35 25 bc 6e 61 30 3c a2 a6 4e bd
       0.024004102 -0.010083491 0.010765417 -0.050451882
0003b0 41 42 38 3d bc 45 76 3d 3f b5 a2 bd c7 cb a4 3c
       0.04498506 0.060125098 -0.07944726 0.0201167
0003c0 53 da aa bc 89 6b a7 bc 77 4b ca 3b 02 31 38 3d
       -0.020856058 -0.020437019 0.006173547 0.044968612
0003d0 c0 97 2a bd 35 00 32 3d d4 ef 83 3c 12 b3 8d bc
       -0.041648626 0.04345723 0.01610557 -0.017297301
0003e0 09 60 0c 3c 42 ab a0 bc 4f b3 bb bc b8 66 be 3c
       0.008567818 -0.019612912 -0.02291265 0.02324234
0003f0 80 ce 97 bb 3f 21 86 3b 78 bf bc 3b e3 72 6d 3b
       -0.004632771 0.0040933187 0.0057601295 0.0036231808

block_1.c2_r.eval_conv.bias f4 [26]
000000 6f c3 84 3f da d6 94 3e e0 6f 93 c0 a2 43 8f bf
       1.0372142 0.2907017 -4.6074066 -1.1192515
000010 18 23 4d be b8 26 4c c0 28 3a 22 c0 7d 6e a7 c0
       -0.20032918 -3.1898632 -2.5347996 -5.2322373
000020 32 57 26 3f 82 09 80 be cb 99 85 c0 63 59 03 be
       0.649768 -0.25007254 -4.1750236 -0.12827067
000030 23 62 a6 bf 4c bf 91 c0 9c dc 70 3f 90 55 9b 3f
       -1.2998699 -4.5546017 0.94086623 1.2135487
000040 ca 20 ae 3f 33 a5 87 3f 6c a9 6c c0 90 41 88 bf
       1.3603756 1.059729 -3.6978407 -1.0645008
000050 72 6f a9 3f 34 32 07 3f 7e d5 9d be 8e 9f 3d c0
       1.3237135 0.5281098 -0.30826944 -2.9628634
000060 7c b8 b9 c0 57 c1 38 c0
       -5.80377 -2.8868005

block_1.c3_r.eval_conv.weight f4 [26, 26, 3, 3]
000000 c1 da 97 3a 6e f3 c1 3a 5e f3 1b 3a 07 2b a3 3b
       0.001158558 0.0014797279 0.00059490453 0.0049794945
000010 1f d8 41 b9 0e 10 9d 3b 38 be 12 3b 23 61 7c 3b
       -0.00018486426 0.0047931736 0.0022391211 0.0038510046
000020 30 54 f5 ba ce 91 23 bb b3 32 b4 bb 41 8a c0 ba
       -0.0018717106 -0.0024958733 -0.005499208 -0.001468964
000030 54 0c 11 ba e5 6c 60 3b 4b 00 8b 3a 26 1e fd 3a
       -0.0005533148 0.0034244594 0.0010604946 0.0019311353
000040 c1 21 ae bb b6 42 de ba c4 7e f3 b9 da fa 5a bd
       -0.0053140824 -0.0016957137 -0.0004644302 -0.053461887
000050 44 29 ac bc 31 0a c4 bd 80 8f 4b bd bb 6c 5b bd
       -0.02101577 -0.09572256 -0.0496974 -0.05357049
000060 f8 fd 34 3d eb 30 52 3c 09 4e 07 bd 37 b5 85 bb
       0.044187516 0.012829046 -0.033033404 -0.0040804404
000070 43 59 5c 3b 44 7f ef 3b 30 72 b8 3b f9 f2 f5 bd
       0.003362254 0.0073088724 0.0056288466 -0.12009234
000080 d5 e4 01 3c 5a 7e 12 bc c5 02 a0 3b 8f 8f 93 ba
       0.007928093 -0.008941257 0.0048831427 -0.0011257994
000090 bd 3d 19 3c 04 a7 1b 3b 4a 4f 38 ba c3 73 2c 3b
       0.009353098 0.0023750672 -0.0007030858 0.0026314117
0000a0 c5 33 ce 3b cb 3b bf 3a e3 0d f2 3b 68 f5 21 3b
       0.0062927925 0.0014589963 0.0073869093 0.0024712924
0000b0 81 60 e7 bb 9a 33 35 bc ab 54 f5 bb c6 82 93 3b
       -0.0070610647 -0.011059666 -0.0074869 0.0045016734
0000c0 df b4 c6 bb 22 b7 78 3d ae 38 2f 3a 4d 06 7f 3b
       -0.006064042 0.060721524 0.0006684166 0.0038913668
0000d0 d5 b2 f8 3b 60 29 a6 bb df f1 5d 3b a8 e6 bc bb
       0.007589678 -0.0050708503 0.003386609 -0.005764801
0000e0 bb e4 38 bb ef 6d a2 3c d1 8e e0 bd 4c a7 52 bc
       -0.0028212506 0.019827811 -0.1096474 -0.0128572695
0000f0 64 1c cb bb 45 74 67 3a cf 63 a7 bb 39 65 31 3a
       -0.006198453 0.0008829276 -0.0051083337 0.00067670975
000100 b4 84 1f 3d f7 f8 e6 3c 0c 6f f7 3c 73 81 49 3f
       0.038944915 0.028194888 0.030204318 0.7871315
000110 54 9f 7f 3c b3 31 28 bc c5 19 fb 3c b9 42 b0 bc
       0.015601952 -0.0102657555 0.030651936 -0.02151619
000120 1d 77 4d 3a 96 db da 38 02 7e 3c ba f8 78 49 bb
       0.00078378787 0.00010435951 -0.00071904075 -0.003074227
000130 43 49 7c bb c4 07 23 3b 0e f1 ac ba d2 e7 1b 3b
       -0.0038495816 0.0024876455 -0.0013194398 0.0023789299
000140 80 e6 04 3a d6 23 6e ba 04 57 9a bb 6b 74 ca ba
       0.00050697476 -0.00090843195 -0.00471008 -0.0015446072
000150 67 50 53 3b 28 a0 00 3c c2 58 6a 3b 75 71 c7 3a
       0.0032243968 0.007850684 0.003575847 0.0015216308
000160 b9 ad 76 bb d9 e4 1a ba ed 85 d4 3d e1 1a a4 3d
       -0.0037640168 -0.0005908735 0.10377107 0.08012939
000170 89 22 db 3c 91 ec 29 3d 7c 63 71 3d 24 22 40 3d
       0.026749866 0.041485373 0.058932766 0.04690756
000180 45 c1 8e bc c0 86 1f bb 17 58 f0 bc 99 21 da bb
       -0.017426142 -0.0024341792 -0.02933888 -0.006656837
000190 87 59 69 bb 07 f0 5d 3b 2f 80 87 3b ea a0 15 ba
       -0.003560634 0.0033864991 0.0041351537 -0.0005707877
0001a0 77 44 ee 3b 61 d0 3e bb e0 13 84 bc e1 e1 f3 b9
       0.0072713452 -0.0029115903 -0.016122758 -0.00046516865
0001b0 e8 9a 20 bb 9c 11 1b 3a 04 99 47 bb bf 84 84 ba
       -0.0024506394 0.0005915405 -0.0030456195 -0.0010110362
0001c0 27 70 73 bc e0 75 3c 3a 9a ae 1a bb bc 8a ab bc
       -0.014858282 0.00071891956 -0.0023602606 -0.020940177
0001d0 08 1b f9 bb 73 10 16 3b 07 cf 27 bd ba 6d 0d bc
       -0.0076020993 0.0022897988 -0.04096892 -0.008632118
0001e0 ce 80 8f bd 6c a3 5a be 0c 9b 97 3d f9 19 17 bd
       -0.070069894 -0.21351403 0.0740262 -0.036890004
0001f0 02 1d bb 3d c1 d9 9d 3c b7 00 89 3c 00 b6 3b bb
       0.09136392 0.019268872 0.016723974 -0.0028642416
000200 b1 4c 91 3b ce a8 c8 3b 93 02 35 bb 76 6a 87 bb
       0.004434191 0.0061236387 -0.0027619943 -0.004132564
000210 71 b5 b5 ba 1d d6 05 3b b2 9d fa 3a 78 8d b2 ba
       -0.0013863278 0.002042181 0.0019120483 -0.0013622483
000220 ae fb 1e bb b5 40 87 3a 1c e4 2f ba e4 1e 87 3c
       -0.00242589 0.0010318967 -0.0006709711 0.016494222
000230 5b b9 ad bb ea 34 0b 3b 39 f2 ca bb f9 4a f5 ba
       -0.005301637 0.0021241256 -0.006193426 -0.001871436
000240 d7 ad 4e ba 31 87 a0 ba df d0 84 bb 6a bd ba ba
       -0.00078841805 -0.0012247321 -0.0040532197 -0.0014247124
000250 29 48 ca bb 0f d2 a1 b8 d7 e8 03 3b 7a de ef 3b
       -0.006173153 -7.716205e-05 0.0020127797 0.0073202224
000260 b8 81 e2 3a 4d 66 77 3b 06 24 0e bc ce 1b cd ba
       0.0017281091 0.0037750185 -0.008675581 -0.0015648545
000270 a4 6e a3 bb 36 cf ae 3b 54 5b c3 b9 e0 b5 56 ba
       -0.0049875546 0.00533476 -0.00037261343 -0.00081905536
000280 0e 52 8d 3a 7d 08 82 b9 2b ec 18 3c 4c 1c c5 3a
       0.00107819 -0.00024801856 0.009333651 0.001503834
000290 01 24 1f bb dc c9 b3 bc 3b da e5 3d 6a e4 1c bd
       -0.0024282935 -0.02194684 0.11223265 -0.03830377
0002a0 4f 4f f1 3b 7a 0d b1 3a d7 c3 83 bd e7 bf 9d bc
       0.0073641906 0.0013508045 -0.06433838 -0.019256545
0002b0 75 66 a5 3c 8e 22 f2 bc 30 2e c1 bb 08 a3 57 bc
       0.020190457 -0.029557493 -0.0058953986 -0.013161428
0002c0 77 f9 ae 3c 65 28 da bb 1a 4e e0 3c 97 1f a3 3c
       0.021359188 -0.0066576474 0.027380992 0.019912524
0002d0 93 8c 99 b9 83 c8 db 39 91 df 11 b9 bc 54 66 ba
       -0.0002928717 0.00041920328 -0.00013911563 -0.000878643
0002e0 af 33 43 38 5e 29 53 ba b6 2e 9c b9 8f 73 3e b9
       4.6539757e-05 -0.00080551754 -0.0002978944 -0.00018162861
0002f0 71 b4 7e 3a 1c 4c 0f bb 6e cc 9b ba 48 d5 19 bb
       0.0009716219 -0.0021865433 -0.0011886486 -0.0023473073
000300 8d 55 2b bb 18 90 20 bb 5e 48 1f 3b 3d 8b 30 bb
       -0.0026143522 -0.002449995 0.0024304609 -0.0026938461
000310 d7 ad 0a 3b f7 75 83 ba cd 82 ad 3a d3 93 88 3b
       0.0021160746 -0.0010029663 0.0013237834 0.0041680126
000320 1d 2d 0c 3b 36 47 eb 3a 23 e6 37 bc 6a a6 28 3b
       0.0021389194 0.00179503 -0.011224302 0.0025733956
000330 2d 95 8b 38 12 71 27 bb 9a aa ad 3a 74 fe 14 3c
       6.655823e-05 -0.0025549573 0.0013249696 0.0090938695
000340 4f 26 0e bd 7a 4f 75 3d f6 70 b8 3c 79 cf 73 bd
       -0.034704503 0.059890248 0.022514801 -0.059524033
000350 75 59 d6 bc 83 d2 bc bb 3f de a4 bc e4 70 29 3a
       -0.026165703 -0.0057623996 -0.020125506 0.00064636604
000360 78 3a 8d bc f7 8f ad bc c3 c7 3a bd 44 19 dd bb
       -0.017239794 -0.021186812 -0.045600664 -0.0067473967
000370 82 4c 98 bd 56 f4 08 bc b3 e2 27 3c de ec 02 ba
       -0.07436468 -0.0083590355 0.01024692 -0.00049944024
000380 08 47 14 bc dd 3c 00 bd 4a 6a f2 bc a0 44 12 bd
       -0.009050138 -0.031308044 -0.029591698 -0.035709977
000390 2c 84 5a 3d a6 47 77 bd b4 6d b2 bb 14 4c 5e 3c
       0.053348705 -0.060371064 -0.0054452065 0.013567943
0003a0 1c 72 c9 3c f6 a7 3a bc 1d 45 b7 3d 23 e1 c7 bb
       0.024590544 -0.011392584 0.08948729 -0.0060998364
0003b0 3f 18 b7 3c 96 61 22 3d c6 3f b1 3e d8 f2 c7 bc
       0.022350429 0.039643846 0.34618968 -0.02440779
0003c0 84 e2 78 3d 5c 31 25 3e 2c e2 58 3d 7d 2f 18 3e
       0.060762897 0.1613211 0.05295007 0.14861865
0003d0 4c 71 2f 3e 8f ed 73 3c fc 4d 48 bf 8f 59 95 be
       0.17133063 0.014888181 -0.78243995 -0.2916989
0003e0 71 5b 5f bd 3c d9 6b 3e 17 1b 7a 3c 85 b2 d6 bc
       -0.054530565 0.23032087 0.015265248 -0.026208172
0003f0 ea 76 d7 bf d7 cb 58 bf 9e 15 24 3f 9e 7c 11 c1
       -1.6833165 -0.84686035 0.64095485 -9.092924

block_1.c3_r.eval_conv.bias f4 [26]
000000 c4 47 59 be b2 46 16 c0 58 09 65 3f 37 d0 8e bc
       -0.21218783 -2.348065 0.8946738 -0.017433269
000010 f4 78 a6 bd 68 39 de bd 48 64 9f bf 9f 4b a5 bf
       -0.08128539 -0.10850793 -1.2452478 -1.2913703
000020 52 90 1e 3c ea b8 04 3e de 13 ae 3e ae b7 85 3d
       0.009677963 0.12961164 0.33999532 0.06529175
000030 a4 17 60 3d 10 cf 2a 3d 10 41 85 3f 68 58 3b c0
       0.054710045 0.041701376 1.041048 -2.927271
000040 a3 6c 46 3f 6d 92 f4 3c f9 b0 20 bf 60 40 ba bb
       0.77509516 0.029854978 -0.6277004 -0.0056839436
000050 90 03 0e bc 03 2f a1 3b 1d 11 95 3e 60 7e bf bb
       -0.008667842 0.0049189343 0.2911462 -0.0058439225
000060 e0 78 42 3b cc e3 24 3e
       0.0029674098 0.16102523

block_2.c1_r.eval_conv.weight f4 [26, 26, 3, 3]
000000 f2 4e aa bd 21 c1 8b be 47 4a 96 bd 82 c2 cd bf
       -0.08315839 -0.27295783 -0.07338386 -1.6074984
000010 b4 a8 a1 3f c7 68 c5 3e 9e 2a 85 be 28 3f e0 3e
       1.2629609 0.385565 -0.26009077 0.43798184
000020 49 f1 b8 bd 55 03 89 bd df 0b 22 3e 0a 27 4b 3e
       -0.090303965 -0.06690089 0.15824841 0.19839111
000030 6c a2 4d 3e 73 1a 2b 3e b4 30 0f be 73 c1 c7 3d
       0.2008149 0.16709308 -0.13983423 0.097536944
000040 09 15 0c 3e f1 f5 6b 3e ec 19 11 3e 1c 41 20 be
       0.136799 0.23043038 0.14170045 -0.15649837
000050 70 88 cb 3d b5 3b 6f 3e fe 72 ec be 2c 05 80 be
       0.09938133 0.2336262 -0.46181482 -0.25003946
000060 ca 60 b1 3e ba 35 b5 be bc 2c ee 3d 8a e9 2b 3f
       0.34644157 -0.35392553 0.11629626 0.6715323
000070 81 d2 b9 be 82 ef 25 3e bb 5a 96 bf 2e 26 07 3f
       -0.36293414 0.16204646 -1.1746439 0.5279263
000080 e8 e9 62 bf ab 81 0b bf 83 1f bc be 10 1f 27 bc
       -0.8863816 -0.5449473 -0.36742792 -0.010200277
000090 05 d8 11 3f 3c 39 82 be 9f ad 89 bd ef c4 66 c0
       0.56970245 -0.2543429 -0.06722569 -3.6057699
0000a0 81 ef 18 40 ea 6e 03 3f ee fd 6a bf c1 7d 93 3e
       2.3896182 0.51341116 -0.91793716 0.2880688
0000b0 97 00 6c 3f 22 f6 11 be dc e7 0b 3d 02 cd 71 be
       0.921884 -0.14254048 0.034156665 -0.2361336
0000c0 04 d4 58 bf ca a8 9e 3f 8a 0f 1c 3e a8 7f 8d be
       -0.8469851 1.239526 0.15240303 -0.27636456
0000d0 dc 24 d2 3d f6 43 56 be 02 c0 e0 be 12 f5 cb 3e
       0.102609366 -0.20924363 -0.4389649 0.3983541
0000e0 60 4d 36 3d 8f 0a 00 3f d1 7b 87 3f 8e e4 58 bc
       0.044507384 0.5001611 1.0584661 -0.013238085
0000f0 3a 30 80 3e 34 7c 88 be f5 30 80 3c 79 c7 33 3d
       0.25036794 -0.2665726 0.015648345 0.043891404
000100 6b 4b e2 3d 44 5e c0 bc c5 69 29 3f e9 52 88 3d
       0.11049541 -0.02348245 0.66177016 0.06656439
000110 0c 36 cd bc b1 70 2f bf 88 41 21 3e 86 ee 0e be
       -0.025050186 -0.6853133 0.15747654 -0.13958177
000120 86 c9 3f bf 10 91 d4 3e 20 bb 1c 3f 73 af 35 40
       -0.74916875 0.41516924 0.6122303 2.8388336
000130 7a f8 c4 bf 44 66 00 be a6 1e d2 be fc a8 31 3d
       -1.5388329 -0.12539011 -0.41039008 0.043374047
000140 53 98 43 3e e8 7b 5f be 5d a8 86 be 2a cf cf be
       0.19101076 -0.2182461 -0.26300326 -0.4058774
000150 c3 63 e4 3f 62 a3 13 c0 1c d5 1e bf 14 6f 4e 3f
       1.7842945 -2.306847 -0.6204393 0.8063824
000160 1e 32 3a bf f6 16 b0 be 1d 23 ab be b5 71 8e 3e
       -0.7273272 -0.34392518 -0.33425227 0.27821127
000170 31 bb 53 be 89 ca 4f c0 22 c7 56 40 6a 32 02 3f
       -0.20676877 -3.2467368 3.355904 0.50858176
000180 f0 25 13 bf 23 dc 0d 3f c8 dc 8f be 08 87 93 3f
       -0.57479763 0.55414027 -0.2809813 1.1525583
000190 8a d0 9f 3e 0f 45 c2 3e 89 ea 58 c1 ec ef 8b 3e
       0.3121379 0.37943313 -13.55726 0.27331483
0001a0 99 66 3a be 30 9d ba 3e 31 c1 43 3d ac e2 88 3e
       -0.182032 0.3644805 0.047791664 0.26735437
0001b0 90 ad c3 3f 9a e3 cf 3f 2e f1 12 3f 01 ff f9 3f
       1.5287342 1.6241333 0.5739926 1.9530946
0001c0 27 1f 59 c1 d9 49 d2 c0 fc 97 e1 3e d9 a0 ee 3e
       -13.570106 -6.5715146 0.44061267 0.46607092
0001d0 d0 a5 55 be 17 69 24 3f ad 20 64 3f d9 ae 05 3e
       -0.20864034 0.64222854 0.8911236 0.1305498
0001e0 2e 60 99 40 e5 d9 78 c0 e2 99 78 bf fb 69 a5 be
       4.7929907 -3.8882992 -0.97109807 -0.3230742
0001f0 0f 37 3c 3f e2 30 da bc 19 6e 7d 3c d7 6c 4a bd
       0.7352151 -0.026634637 0.015468144 -0.049420204
000200 bf 4e 77 3e 27 40 1f bf a0 cf a7 bd 12 de a5 be
       0.24151133 -0.62207264 -0.08193898 -0.3239599
000210 98 83 ea be e5 d0 e1 bd ad 9d 95 bd d8 10 9f bd
       -0.45803523 -0.110261716 -0.07305465 -0.077668846
000220 b4 8d 6f bd f0 ce 5a 3e 0f 40 b0 3d 51 b8 b0 3d
       -0.058484748 0.21368003 0.08605968 0.086289056
000230 92 73 83 be 17 30 38 3e 05 a2 61 bd 8f 61 b5 3c
       -0.2567411 0.17987095 -0.055086154 0.022141246
000240 b5 8e a0 3e 01 6e 17 bd 3f d2 e4 bd 47 04 24 be
       0.31358877 -0.036970142 -0.11172914 -0.16017257
000250 9b e3 28 3f 38 10 13 ba ae 72 d0 3e 47 68 f4 3d
       0.659723 -0.0005610022 0.40712494 0.11933952
000260 30 3e 9f 3d 1e 7e 1d 3e ad 33 5c 3e ad 30 bd 3e
       0.07775533 0.15380141 0.21504088 0.369512
000270 19 ef 88 3e 9b 8c 3b bf e2 e2 b3 bd 86 6b b4 3e
       0.26744917 -0.7326142 -0.08783509 0.35238284
000280 ed 68 b1 be fc 03 ef 3e 98 81 2b be 08 14 a2 bd
       -0.34650365 0.46682727 -0.16748655 -0.07913977
000290 f9 9d 57 bf 98 a8 df bf 1f 98 10 be b8 48 74 be
       -0.8422542 -1.7473326 -0.1412053 -0.23855865
0002a0 73 c7 a9 bf 2e 82 c4 be 06 45 5a 3d 47 c8 23 3f
       -1.3263992 -0.3838057 0.053288482 0.63977474
0002b0 07 51 00 be 8f 1d 37 bf 20 88 2f 41 92 ba 79 c0
       -0.1253091 -0.7152948 10.970734 -3.9020123
0002c0 3d 44 c8 3e a7 76 ab 3e 59 4f 92 be 1c 63 59 bf
       0.39114562 0.33488962 -0.28576162 -0.84916854
0002d0 56 99 07 c0 31 f1 bf 3f 8a ed 96 3d bb 60 95 40
       -2.118734 1.4995481 0.07369526 4.668058
0002e0 be 98 b6 c0 25 3b 51 3f fe 22 30 40 b2 93 49 c0
       -5.7061453 0.8173087 2.7521358 -3.1496396
0002f0 72 a6 b3 3e 03 40 1f 3f 44 ab c3 3e ad 6d 8f bc
       0.35087925 0.6220705 0.38216603 -0.017508352
000300 81 83 a6 40 4d 7a 23 c1 1b 02 c6 bf 7b df 4e 3f
       5.2035527 -10.217359 -1.5469393 0.80809754
000310 20 fd 82 3f 60 9e 2c 3f 37 7e 86 be 09 05 30 3e
       1.0233498 0.6742916 -0.2626817 0.17189421
000320 62 9e 99 bd 7f 6c dc 3e 55 e8 51 be 66 7a 88 3d
       -0.07500912 0.43051526 -0.20498784 0.06663971
000330 6e 21 db be 77 e1 ba 3d 85 b5 3a 3d 7b e1 4f bf
       -0.42798942 0.09125035 0.045583267 -0.8120343
000340 57 8f 8b 3f 73 a0 95 be 58 79 a2 3f 2e ed ba bf
       1.0903119 -0.29223976 1.2693281 -1.4603631
000350 59 39 31 3e 8d 56 18 40 cf 14 2b c0 38 12 5e 3d
       0.17307033 2.3802826 -2.673145 0.054216594
000360 b7 d3 61 3f e4 44 af bf 0a 47 c2 bd ec a6 8b 3e
       0.88213676 -1.3692899 -0.09486206 0.2727579
000370 c5 b3 6d bf c7 95 50 bf 7a 1d 1a be 00 de 13 3f
       -0.9285243 -0.8147854 -0.15050307 0.5776062
000380 50 6f 02 3f f3 67 cd 3d 36 aa 8f bd 1d 51 7a be
       0.509511 0.10029592 -0.07014887 -0.24445005
000390 7e 05 35 3f b7 89 07 3f 92 5b d7 3e ae 77 d1 3e
       0.70711505 0.5294451 0.4206205 0.4091162
0003a0 f4 f6 81 3e a4 81 bf 3e 45 6f d5 bd e8 6a 12 3f
       0.25383723 0.37403595 -0.104216136 0.57194376
0003b0 45 85 bc 3e e0 9a 0a 3f e7 93 cb 40 4d ae 19 3e
       0.36820427 0.5414257 6.3618045 0.15007897
0003c0 1f 18 55 be 88 a5 cd be 5d 5e 98 be d2 2f 14 3c
       -0.20809983 -0.40165353 -0.29759493 0.009044604
0003d0 77 24 85 bd 5c ae c0 bd b2 79 71 3d 11 2f 76 bd
       -0.06501096 -0.094082564 0.05895395 -0.06010348
0003e0 25 1a 0c 3c a8 e5 3e bc 62 6a 54 bd 2e b3 e8 3c
       0.008551155 -0.011651434 -0.051859267 0.028405752
0003f0 c3 4f a5 3c 2e cd d5 bc 5c f8 b1 bc 17 3d 90 bc
       0.020179635 -0.026098814 -0.021724872 -0.017607255

block_2.c1_r.eval_conv.bias f4 [26]
000000 1a 0e 44 bf b8 29 42 bf c7 ce 49 3f d3 a3 d5 be
       -0.7658402 -0.7584491 0.7883114 -0.4172655
000010 11 3e 9a 3f e9 a1 e8 3f 49 37 92 bf d6 ef 86 bf
       1.2050191 1.8174411 -1.1423122 -1.0541942
000020 26 e1 35 3f f2 bc 34 3f 47 5e 00 3e c8 4e 9b be
       0.71046674 0.7060081 0.12535964 -0.30333543
000030 84 a3 84 be b6 26 50 bf 3c 74 48 bf fb c4 bb bf
       -0.25906003 -0.8130907 -0.7830236 -1.4669489
000040 e3 2f f4 3f 29 3b a2 c0 9b 36 fe 3e 8b 9d 8c 3e
       1.9077114 -5.0697217 0.49651036 0.27463946
000050 16 c7 f1 3e 33 63 77 3f fe 7e 1f c1 0e 1f 65 be
       0.47222203 0.9663574 -9.968504 -0.22375128
000060 0e 45 ce 3d 37 c8 87 3d
       0.10071765 0.06629985

block_2.c2_r.eval_conv.weight f4 [26, 26, 3, 3]
000000 d1 ad b9 bc ad d7 9d bc 9e 16 92 38 d8 33 f9 bc
       -0.02266589 -0.019267881 6.966035e-05 -0.030420229
000010 51 de 85 bd 8d 83 91 bc 57 64 76 bc 2a b9 22 bd
       -0.06536544 -0.017762924 -0.015038571 -0.039727367
000020 4a ed e7 bc 47 b9 cc bc 5e 64 a0 3d ac a5 ad 3c
       -0.02831139 -0.02499069 0.078316435 0.021197163
000030 03 ee 12 bc 65 06 07 bd be f9 49 3c 4a e3 9a 3c
       -0.008967879 -0.032965083 0.01232761 0.018907208
000040 b8 73 87 3d 37 38 f9 3c 05 44 e2 bc bf 36 36 3e
       0.066138685 0.030422313 -0.027620325 0.17794321
000050 68 71 f6 bc 79 52 b4 3d 99 a0 8b be 43 76 6f 3d
       -0.030083373 0.08804793 -0.27270964 0.058462393
000060 ee 06 e4 bc a8 48 18 3e 7a 55 5f bd ad 4a 52 bd
       -0.027835336 0.14871466 -0.054524876 -0.051340748
000070 46 82 1b bd 97 02 c7 bc 07 cd 92 bd 0a ec bb bd
       -0.037966035 -0.024293227 -0.07168012 -0.0917588
000080 85 9a 9b bc 91 6c cd bc 45 1b f7 bc 54 63 72 bc
       -0.01899458 -0.025076183 -0.03016437 -0.0147941895
000090 01 25 b7 ba eb 1c f1 3d 26 b7 12 3d 4a 10 cb 3d
       -0.001397282 0.11773094 0.035819195 0.09915216
0000a0 1e 6e b7 bd 2f 4d 53 bd 14 e7 8b 3d fe a4 b9 bc
       -0.0895655 -0.05158728 0.06831184 -0.022661682
0000b0 c8 37 0a bc e1 44 f5 3c d0 95 84 bc 64 4f 22 3d
       -0.008436151 0.02994007 -0.016184717 0.039626494
0000c0 88 05 e3 bd 73 19 0a be 82 27 89 bd a0 ed 13 be
       -0.110850394 -0.1348627 -0.06696989 -0.14446115
0000d0 d9 9e 0a be 39 fc c5 bc 1a a5 d7 3b 8c 04 56 3b
       -0.13537158 -0.02416812 0.006580961 0.0032656519
0000e0 88 50 33 3c ef a9 63 bd 28 7e 9c bd ce f7 83 bc
       0.010944493 -0.055581983 -0.0764125 -0.016109373
0000f0 b8 d9 70 bc 4a 91 0e bd c9 44 0b bc 42 c4 d5 3b
       -0.014700346 -0.034806527 -0.008500286 0.00652364
000100 8e 2d a4 bc b7 96 fe 3a f5 31 3d 3c 09 71 43 3c
       -0.020041253 0.0019423579 0.011547555 0.011928805
000110 93 a1 e7 ba 79 cf 4c bc c6 b7 0a 3c 4c 09 d3 3b
       -0.0017672054 -0.012500637 0.008466667 0.0064403173
000120 a8 db 8e bc bf 0f 5a bc 43 bb 5d 3b 93 1f 56 bc
       -0.017438725 -0.013309418 0.003383354 -0.013069051
000130 74 49 22 3e 4b 4d 2a 3d 9a 75 9e 3b c3 87 91 3c
       0.15848333 0.04157762 0.0048357965 0.017764932
000140 a8 81 67 3c 59 87 00 bd 38 92 62 bd 31 35 bb 3c
       0.014130034 -0.031379078 -0.055315226 0.022852512
000150 f5 07 3d be ca 00 c6 bd e5 37 4a bc 8d 30 ef bc
       -0.18460067 -0.09668119 -0.012342428 -0.029197956
000160 6a 92 e2 3d f4 ad bd bd 93 76 e0 3c c7 8b 5d bd
       0.110630825 -0.092616946 0.02740029 -0.05408838
000170 69 49 4d 3d 82 f2 e3 3d 3d 77 ae 3d 2d 70 b1 3c
       0.050118838 0.11130239 0.08518837 0.021659935
000180 92 77 3b 3e 79 1f 71 3d 7b c9 0c 3e a2 15 c9 3b
       0.18307331 0.058867905 0.13748734 0.006136612
000190 ec 2b 22 3d ef 2b 1a bc 3d 34 f9 3d 47 1b 30 3d
       0.03959267 -0.009409889 0.12168167 0.042994764
0001a0 f0 3b ff bb cc 33 d4 ba fd dd 21 bc ec 51 29 3c
       -0.0077891275 -0.0016189753 -0.009879586 0.010334473
0001b0 f1 d9 cd 3d 55 f8 51 3d 8c 5c 97 3d 79 6b d5 be
       0.10051335 0.05126222 0.07390699 -0.41683558
0001c0 9f 97 c9 3e 13 c5 10 bc 15 92 ce bc cf af 26 bd
       0.3937349 -0.008836049 -0.025216142 -0.040695008
0001d0 9d ac bc bb 28 bd 19 bd 44 3b 0d 3d a7 5d ed bb
       -0.005757882 -0.03753391 0.03448035 -0.0072438302
0001e0 79 31 f0 bc a6 10 5e bc 08 33 a7 3a ca 43 12 bb
       -0.029320465 -0.013553774 0.0012756297 -0.0022318237
0001f0 3c 55 8f bc 56 e9 d4 3b 82 78 ee 3c c9 da b9 bc
       -0.017496698 0.0064975424 0.029110197 -0.022687333
000200 f9 35 37 b9 bc cb a6 bd 15 c5 b6 3b 0b 88 30 3d
       -0.00017472346 -0.08144328 0.005577693 0.04309849
000210 ca 29 06 3d 3c 45 e0 3a a1 e3 1d 3d 10 ac 06 be
       0.032754697 0.0017110477 0.038547162 -0.13151574
000220 93 15 2a be 40 43 c1 bd eb 3a 3c 3e 69 86 a3 3c
       -0.16609792 -0.09436655 0.1838185 0.019961553
000230 f9 53 5d 3e 2f ff f2 bd eb 65 67 3e e2 3e 07 be
       0.21614064 -0.11865079 0.22597472 -0.13207582
000240 e1 42 73 3d 66 16 13 bd 56 31 4a bd 44 8a a7 3d
       0.059389953 -0.035910033 -0.049363457 0.08180669
000250 d1 07 28 3e 72 49 eb 3d 65 15 31 3d 08 0b 2c bd
       0.16409232 0.11488618 0.043233294 -0.042002708
000260 24 85 9b 3c 61 10 38 3e 51 5c ac bc 1b 5f 7b 3c
       0.018984385 0.17974998 -0.021040114 0.015342499
000270 13 ad 4e bd 86 40 d5 3c 4e 01 a8 bd 80 09 8f 3d
       -0.050458025 0.026031744 -0.08203374 0.06984234
000280 25 a3 32 3e fd 4b 33 bc 2c 68 9e 3b ab e7 8b bb
       0.17445047 -0.01094341 0.0048341956 -0.0042695603
000290 ab 73 64 3c 27 6f 5b 3c 26 71 07 bc 25 d0 bf 3c
       0.013943593 0.0133932 -0.008266723 0.02341468
0002a0 73 c4 23 3c d8 aa 3e 3c d5 94 e4 3c ac a7 fa bc
       0.009995568 0.011637412 0.027903 -0.03059753
0002b0 78 0e 50 bd e2 a4 23 bc 0c b0 65 bd 87 82 2a bd
       -0.05079505 -0.009988042 -0.056076095 -0.041628387
0002c0 0d 6b 19 bc e8 13 e1 bc fe 04 87 bc 07 da 8a bc
       -0.009363902 -0.027475312 -0.016481873 -0.016949667
0002d0 fa f7 a1 3c 3a 03 5e 3b eb f3 02 bc 9f 87 3f bc
       0.019771565 0.0033876435 -0.007992725 -0.011690049
0002e0 09 39 92 3c 3d 55 49 bd 3b a5 07 bd 1b d6 2f bc
       0.017849462 -0.049153555 -0.03311656 -0.010732199
0002f0 29 95 9b bc 04 7d 48 bc 7b 89 9b bd 8c 13 30 bc
       -0.018992024 -0.012236837 -0.07594582 -0.010746848
000300 0c 35 15 bc 14 9f d7 3d 69 91 81 3b 49 29 d1 bc
       -0.009106886 0.105283886 0.003954102 -0.025532382
000310 46 ba 8a bb 08 f4 1d bd 8d e3 ef 3c b2 dc 9d be
       -0.0042336313 -0.038562804 0.02928331 -0.3083244
000320 49 f4 72 3c 70 41 14 3e a2 6d ab bb c0 e1 af bc
       0.01482875 0.14478087 -0.005231575 -0.02146995
000330 0a 58 14 bb 7b 7a cb 3d ee ee 80 be 0b 7e ad bb
       -0.0022635483 0.09935471 -0.2518229 -0.0052945665
000340 c2 c5 28 3c 2d 45 c8 3b 68 c9 ad 3a ae eb 1f bc
       0.010301055 0.006111762 0.0013258876 -0.00976078
000350 11 2b 13 bc 71 ce 76 3b 59 cc 7d bb 9c 11 ab 3b
       -0.008982436 0.003765967 -0.0038726537 0.005220605
000360 30 73 70 3d fa ed 0c 3e ee 2b ae bc 99 a8 89 3e
       0.0587036 0.13762656 -0.021261182 0.26886442
000370 75 84 92 be 9b aa f2 3b 5d ca d1 ba d6 86 0d bd
       -0.28616682 0.0074055917 -0.0016005744 -0.034552418
000380 60 e1 b3 bc 00 34 0b 3b cd 1d 1e ba f0 dd 01 3c
       -0.021958053 0.0021240711 -0.00060316623 0.007926449
000390 4c 9f 62 3d 85 19 68 bd a0 34 78 3b c8 d2 23 3d
       0.0553277 -0.056664962 0.0037873164 0.03999594
0003a0 f7 2a 4e 3c 2d ee 03 3d 16 34 48 3b 12 43 6d bb
       0.012583486 0.032209564 0.0030548624 -0.0036203307
0003b0 3e 6a 91 bc 9a 4d 9b bb 73 12 32 bc cb ca 8c bc
       -0.017750856 -0.0047394754 -0.010868656 -0.017186543
0003c0 1c 20 2a 3c 7b 57 8c bb 9f 80 e4 3b 4c c4 45 3b
       0.010383632 -0.0042828894 0.0069733406 0.0030176817
0003d0 1c ae 44 bd f8 4f 05 3b c3 ca 23 3c 57 0f bd 3c
       -0.048017606 0.0020341855 0.009997073 0.023078604
0003e0 a2 35 3f bc f9 46 fa bb c6 b9 ae bc 5e 6a a6 3c
       -0.011670502 -0.007637855 -0.021328818 0.020314392
0003f0 71 f8 92 3d 5f 3f 68 3d 41 66 fb 3d ca 43 b2 3d
       0.07176293 0.05670106 0.12275363 0.08704336

block_2.c2_r.eval_conv.bias f4 [26]
000000 f7 d9 8f 3e 02 e5 60 be b1 ca 87 3d 28 83 d2 3f
       0.2809598 -0.2196236 0.06630457 1.6446276
000010 1e 6d 34 bf ba 71 a3 3f 7f cc 00 3f 3f f3 23 c0
       -0.70479 1.2769082 0.50312036 -2.5617216
000020 77 f8 20 be f4 16 20 bf 80 75 67 40 43 96 1f 3f
       -0.15719782 -0.62535024 3.6165466 0.62338656
000030 13 17 58 3f a0 2a a1 3f 20 09 0d be a9 41 69 bf
       0.8441021 1.2591133 -0.13773012 -0.91115814
000040 ea b3 d9 3e fa b1 9e 3e 93 2b 56 bf 65 ac cf 3f
       0.42520076 0.3099516 -0.8366024 1.6224486
000050 0c 6c 9d 3f 12 2b 95 be d5 c4 a1 bf 19 98 b4 3f
       1.2298598 -0.29134423 -1.2638193 1.4108917
000060 58 7c fc 3e 8f da 83 3f
       0.49313617 1.0301074
